…
snapshot: 0
snapshot_prefix: "vgg16_faster_rcnn"
average_loss: 20
iter_size: 2
I0106 17:13:57.065430  5743 solver.cpp:81] Creating training net from train_net file: models/rrpn/VGG16/faster_rcnn_end2end/study_train.prototxt
I0106 17:13:57.065907  5743 net.cpp:49] Initializing net from parameters: 
name: "VGG_ILSVRC_16_layers"
state {
  phase: TRAIN
}
layer {
  name: "input-data"
  type: "Python"
  top: "data"
  top: "im_info"
  top: "gt_boxes"
  python_param {
    module: "rotation.rlayer"
    layer: "RoIDataLayer"
    param_str: "\'num_classes\': 2"
  }
}
layer {
  name: "conv1_1"
  type: "Convolution"
  bottom: "data"
  top: "conv1_1"
  param {
    lr_mult: 0
  }
  param {
    lr_mult: 0
  }
  convolution_param {
    num_output: 64
    pad: 1
    kernel_size: 3
  }
}
layer {
  name: "relu1_1"
  type: "ReLU"
  bottom: "conv1_1"
  top: "conv1_1"
}
layer {
  name: "conv1_2"
  type: "Convolution"
  bottom: "conv1_1"
  top: "conv1_2"
  param {
    lr_mult: 0
  }
  param {
    lr_mult: 0
  }
  convolution_param {
    num_output: 64
    pad: 1
    kernel_size: 3
  }
}
layer {
  name: "relu1_2"
  type: "ReLU"
  bottom: "conv1_2"
  top: "conv1_2"
}
layer {
  name: "pool1"
  type: "Pooling"
  bottom: "conv1_2"
  top: "pool1"
  pooling_param {
    pool: MAX
    kernel_size: 2
    stride: 2
  }
}
layer {
  name: "conv2_1"
  type: "Convolution"
  bottom: "pool1"
  top: "conv2_1"
  param {
    lr_mult: 0
  }
  param {
    lr_mult: 0
  }
  convolution_param {
    num_output: 128
    pad: 1
    kernel_size: 3
  }
}
layer {
  name: "relu2_1"
  type: "ReLU"
  bottom: "conv2_1"
  top: "conv2_1"
}
layer {
  name: "conv2_2"
  type: "Convolution"
  bottom: "conv2_1"
  top: "conv2_2"
  param {
    lr_mult: 0
  }
  param {
    lr_mult: 0
  }
  convolution_param {
    num_output: 128
    pad: 1
    kernel_size: 3
  }
}
layer {
  name: "relu2_2"
  type: "ReLU"
  bottom: "conv2_2"
  top: "conv2_2"
}
layer {
  name: "pool2"
  type: "Pooling"
  bottom: "conv2_2"
  top: "pool2"
  pooling_param {
    pool: MAX
    kernel_size: 2
    stride: 2
  }
}
layer {
  name: "conv3_1"
  type: "Convolution"
  bottom: "pool2"
  top: "conv3_1"
  param {
    lr_mult: 0
  }
  param {
    lr_mult: 0
  }
  convolution_param {
    num_output: 256
    pad: 1
    kernel_size: 3
  }
}
layer {
  name: "relu3_1"
  type: "ReLU"
  bottom: "conv3_1"
  top: "conv3_1"
}
layer {
  name: "conv3_2"
  type: "Convolution"
  bottom: "conv3_1"
  top: "conv3_2"
  param {
    lr_mult: 0
  }
  param {
    lr_mult: 0
  }
  convolution_param {
    num_output: 256
    pad: 1
    kernel_size: 3
  }
}
layer {
  name: "relu3_2"
  type: "ReLU"
  bottom: "conv3_2"
  top: "conv3_2"
}
layer {
  name: "conv3_3"
  type: "Convolution"
  bottom: "conv3_2"
  top: "conv3_3"
  param {
    lr_mult: 0
  }
  param {
    lr_mult: 0
  }
  convolution_param {
    num_output: 256
    pad: 1
    kernel_size: 3
  }
}
layer {
  name: "relu3_3"
  type: "ReLU"
  bottom: "conv3_3"
  top: "conv3_3"
}
layer {
  name: "pool3"
  type: "Pooling"
  bottom: "conv3_3"
  top: "pool3"
  pooling_param {
    pool: MAX
    kernel_size: 2
    stride: 2
  }
}
layer {
  name: "conv4_1"
  type: "Convolution"
  bottom: "pool3"
  top: "conv4_1"
  param {
    lr_mult: 0
    decay_mult: 0
  }
  param {
    lr_mult: 0
  }
  convolution_param {
    num_output: 512
    pad: 1
    kernel_size: 3
  }
}
layer {
  name: "relu4_1"
  type: "ReLU"
  bottom: "conv4_1"
  top: "conv4_1"
}
layer {
  name: "conv4_2"
  type: "Convolution"
  bottom: "conv4_1"
  top: "conv4_2"
  param {
    lr_mult: 0
    decay_mult: 0
  }
  param {
    lr_mult: 0
  }
  convolution_param {
    num_output: 512
    pad: 1
    kernel_size: 3
  }
}
layer {
  name: "relu4_2"
  type: "ReLU"
  bottom: "conv4_2"
  top: "conv4_2"
}
layer {
  name: "conv4_3"
  type: "Convolution"
  bottom: "conv4_2"
  top: "conv4_3"
  param {
    lr_mult: 0
    decay_mult: 0
  }
  param {
    lr_mult: 0
  }
  convolution_param {
    num_output: 512
    pad: 1
    kernel_size: 3
  }
}
layer {
  name: "relu4_3"
  type: "ReLU"
  bottom: "conv4_3"
  top: "conv4_3"
}
layer {
  name: "pool4"
  type: "Pooling"
  bottom: "conv4_3"
  top: "pool4"
  pooling_param {
    pool: MAX
    kernel_size: 2
    stride: 2
  }
}
layer {
  name: "conv5_1"
  type: "Convolution"
  bottom: "pool4"
  top: "conv5_1"
  param {
    lr_mult: 0.1
    decay_mult: 0.1
  }
  param {
    lr_mult: 0.2
    decay_mult: 0
  }
  convolution_param {
    num_output: 512
    pad: 1
    kernel_size: 3
  }
}
layer {
  name: "relu5_1"
  type: "ReLU"
  bottom: "conv5_1"
  top: "conv5_1"
}
layer {
  name: "conv5_2"
  type: "Convolution"
  bottom: "conv5_1"
  top: "conv5_2"
  param {
    lr_mult: 0.1
    decay_mult: 0.1
  }
  param {
    lr_mult: 0.2
    decay_mult: 0
  }
  convolution_param {
    num_output: 512
    pad: 1
    kernel_size: 3
  }
}
layer {
  name: "relu5_2"
  type: "ReLU"
  bottom: "conv5_2"
  top: "conv5_2"
}
layer {
  name: "conv5_3"
  type: "Convolution"
  bottom: "conv5_2"
  top: "conv5_3"
  param {
    lr_mult: 0.1
    decay_mult: 0.1
  }
  param {
    lr_mult: 0.2
    decay_mult: 0
  }
  convolution_param {
    num_output: 512
    pad: 1
    kernel_size: 3
  }
}
layer {
  name: "relu5_3"
  type: "ReLU"
  bottom: "conv5_3"
  top: "conv5_3"
}
layer {
  name: "upsample5_3"
  type: "Deconvolution"
  bottom: "conv5_3"
  top: "upsample5_3"
  param {
    lr_mult: 0
    decay_mult: 0
  }
  param {
    lr_mult: 0
    decay_mult: 0
  }
  convolution_param {
    num_output: 512
    pad: 1
    kernel_size: 3
    group: 512
    stride: 2
    weight_filler {
      type: "bilinear"
    }
  }
}
layer {
  name: "rpn_cls_score"
  type: "Convolution"
  bottom: "upsample5_3"
  top: "rpn_cls_score"
  param {
    lr_mult: 1
  }
  param {
    lr_mult: 2
  }
  convolution_param {
    num_output: 108
    pad: 0
    kernel_size: 1
    stride: 1
    weight_filler {
      type: "gaussian"
      std: 0.01
    }
    bias_filler {
      type: "constant"
      value: 0
    }
  }
}
layer {
  name: "rpn-data"
  type: "Python"
  bottom: "rpn_cls_score"
  bottom: "gt_boxes"
  bottom: "im_info"
  bottom: "data"
  top: "rpn_labels"
  top: "rpn_bbox_targets"
  top: "rpn_bbox_inside_weights"
  top: "rpn_bbox_outside_weights"
  python_param {
    module: "rotation.anchor_target_layer"
    layer: "AnchorTargetLayer"
    param_str: "\'feat_stride\': 8"
  }
}
layer {
  name: "rpn_cls_score_reshape"
  type: "Reshape"
  bottom: "rpn_cls_score"
  top: "rpn_cls_score_reshape"
  reshape_param {
    shape {
      dim: 0
      dim: 2
      dim: -1
      dim: 0
    }
  }
}
layer {
  name: "rpn_loss_cls"
  type: "SoftmaxWithLoss"
  bottom: "rpn_cls_score_reshape"
  bottom: "rpn_labels"
  top: "rpn_cls_loss"
  loss_weight: 1
  propagate_down: true
  propagate_down: false
  loss_param {
    ignore_label: -1
    normalize: true
  }
}
layer {
  name: "rpn_bbox_pred"
  type: "Convolution"
  bottom: "upsample5_3"
  top: "rpn_bbox_pred"
  param {
    lr_mult: 0
  }
  param {
    lr_mult: 0
  }
  convolution_param {
    num_output: 270
    pad: 0
    kernel_size: 1
    stride: 1
    weight_filler {
      type: "gaussian"
      std: 0.01
    }
    bias_filler {
      type: "constant"
      value: 0
    }
  }
}
layer {
  name: "rpn_loss_bbox"
  type: "SmoothL1Loss"
  bottom: "rpn_bbox_pred"
  bottom: "rpn_bbox_targets"
  bottom: "rpn_bbox_inside_weights"
  bottom: "rpn_bbox_outside_weights"
  top: "rpn_loss_bbox"
  loss_weight: 0
  smooth_l1_loss_param {
    sigma: 3
  }
}
I0106 17:13:57.066062  5743 layer_factory.hpp:77] Creating layer input-data
I0106 17:13:57.066890  5743 net.cpp:106] Creating Layer input-data
I0106 17:13:57.066903  5743 net.cpp:411] input-data -> data
I0106 17:13:57.066915  5743 net.cpp:411] input-data -> im_info
I0106 17:13:57.066922  5743 net.cpp:411] input-data -> gt_boxes
…
           'USE_PREFETCH': False},
 'USE_GPU_NMS': True}
MSRA_TRAIN
L_ICDAR2003_TRAIN: 250
total 250
the text instance of total:  1156
250 roidb entries
Output will be saved to `.`
Filtered 4 roidb entries: 250 -> 246
Computing bounding-box regression targets...
bbox target means:
[[ 0.  0.  0.  0.  0.]
 [ 0.  0.  0.  0.  0.]]
[ 0.  0.  0.  0.  0.]
bbox target stdevs:
[[ 0.1  0.1  0.2  0.2  1. ]
 [ 0.1  0.1  0.2  0.2  1. ]]
[ 0.1  0.1  0.2  0.2  1. ]
Normalizing targets
done
Setup the RoIDataLayer
RoiDataLayerI0106 17:13:57.068303  5743 net.cpp:150] Setting up input-data
I0106 17:13:57.068320  5743 net.cpp:157] Top shape: 1 3 500 500 (750000)
I0106 17:13:57.068326  5743 net.cpp:157] Top shape: 1 3 (3)
I0106 17:13:57.068331  5743 net.cpp:157] Top shape: 1 5 (5)
I0106 17:13:57.068334  5743 net.cpp:165] Memory required for data: 3000032
I0106 17:13:57.068341  5743 layer_factory.hpp:77] Creating layer data_input-data_0_split
I0106 17:13:57.068349  5743 net.cpp:106] Creating Layer data_input-data_0_split
I0106 17:13:57.068353  5743 net.cpp:454] data_input-data_0_split <- data
I0106 17:13:57.068368  5743 net.cpp:411] data_input-data_0_split -> data_input-data_0_split_0
I0106 17:13:57.068377  5743 net.cpp:411] data_input-data_0_split -> data_input-data_0_split_1
I0106 17:13:57.068423  5743 net.cpp:150] Setting up data_input-data_0_split
I0106 17:13:57.068433  5743 net.cpp:157] Top shape: 1 3 500 500 (750000)
I0106 17:13:57.068437  5743 net.cpp:157] Top shape: 1 3 500 500 (750000)
I0106 17:13:57.068441  5743 net.cpp:165] Memory required for data: 9000032
I0106 17:13:57.068445  5743 layer_factory.hpp:77] Creating layer conv1_1
I0106 17:13:57.068475  5743 net.cpp:106] Creating Layer conv1_1
I0106 17:13:57.068481  5743 net.cpp:454] conv1_1 <- data_input-data_0_split_0
I0106 17:13:57.068503  5743 net.cpp:411] conv1_1 -> conv1_1
I0106 17:13:57.070456  5743 net.cpp:150] Setting up conv1_1
I0106 17:13:57.070478  5743 net.cpp:157] Top shape: 1 64 500 500 (16000000)
I0106 17:13:57.070482  5743 net.cpp:165] Memory required for data: 73000032
I0106 17:13:57.070505  5743 layer_factory.hpp:77] Creating layer relu1_1
I0106 17:13:57.070518  5743 net.cpp:106] Creating Layer relu1_1
I0106 17:13:57.070523  5743 net.cpp:454] relu1_1 <- conv1_1
I0106 17:13:57.070530  5743 net.cpp:397] relu1_1 -> conv1_1 (in-place)
I0106 17:13:57.070554  5743 net.cpp:150] Setting up relu1_1
I0106 17:13:57.070559  5743 net.cpp:157] Top shape: 1 64 500 500 (16000000)
I0106 17:13:57.070562  5743 net.cpp:165] Memory required for data: 137000032
I0106 17:13:57.070566  5743 layer_factory.hpp:77] Creating layer conv1_2
I0106 17:13:57.070577  5743 net.cpp:106] Creating Layer conv1_2
I0106 17:13:57.070583  5743 net.cpp:454] conv1_2 <- conv1_1
I0106 17:13:57.070605  5743 net.cpp:411] conv1_2 -> conv1_2
I0106 17:13:57.071892  5743 net.cpp:150] Setting up conv1_2
I0106 17:13:57.071910  5743 net.cpp:157] Top shape: 1 64 500 500 (16000000)
I0106 17:13:57.071914  5743 net.cpp:165] Memory required for data: 201000032
I0106 17:13:57.071925  5743 layer_factory.hpp:77] Creating layer relu1_2
I0106 17:13:57.071934  5743 net.cpp:106] Creating Layer relu1_2
I0106 17:13:57.071938  5743 net.cpp:454] relu1_2 <- conv1_2
I0106 17:13:57.071946  5743 net.cpp:397] relu1_2 -> conv1_2 (in-place)
I0106 17:13:57.071954  5743 net.cpp:150] Setting up relu1_2
I0106 17:13:57.071960  5743 net.cpp:157] Top shape: 1 64 500 500 (16000000)
I0106 17:13:57.071974  5743 net.cpp:165] Memory required for data: 265000032
I0106 17:13:57.071979  5743 layer_factory.hpp:77] Creating layer pool1
I0106 17:13:57.071985  5743 net.cpp:106] Creating Layer pool1
I0106 17:13:57.071988  5743 net.cpp:454] pool1 <- conv1_2
I0106 17:13:57.071995  5743 net.cpp:411] pool1 -> pool1
I0106 17:13:57.072033  5743 net.cpp:150] Setting up pool1
I0106 17:13:57.072041  5743 net.cpp:157] Top shape: 1 64 250 250 (4000000)
I0106 17:13:57.072046  5743 net.cpp:165] Memory required for data: 281000032
I0106 17:13:57.072049  5743 layer_factory.hpp:77] Creating layer conv2_1
I0106 17:13:57.072060  5743 net.cpp:106] Creating Layer conv2_1
I0106 17:13:57.072065  5743 net.cpp:454] conv2_1 <- pool1
I0106 17:13:57.072072  5743 net.cpp:411] conv2_1 -> conv2_1
I0106 17:13:57.073181  5743 net.cpp:150] Setting up conv2_1
I0106 17:13:57.073199  5743 net.cpp:157] Top shape: 1 128 250 250 (8000000)
I0106 17:13:57.073202  5743 net.cpp:165] Memory required for data: 313000032
I0106 17:13:57.073215  5743 layer_factory.hpp:77] Creating layer relu2_1
I0106 17:13:57.073225  5743 net.cpp:106] Creating Layer relu2_1
I0106 17:13:57.073230  5743 net.cpp:454] relu2_1 <- conv2_1
I0106 17:13:57.073237  5743 net.cpp:397] relu2_1 -> conv2_1 (in-place)
I0106 17:13:57.073245  5743 net.cpp:150] Setting up relu2_1
I0106 17:13:57.073249  5743 net.cpp:157] Top shape: 1 128 250 250 (8000000)
I0106 17:13:57.073253  5743 net.cpp:165] Memory required for data: 345000032
I0106 17:13:57.073257  5743 layer_factory.hpp:77] Creating layer conv2_2
I0106 17:13:57.073266  5743 net.cpp:106] Creating Layer conv2_2
I0106 17:13:57.073271  5743 net.cpp:454] conv2_2 <- conv2_1
I0106 17:13:57.073279  5743 net.cpp:411] conv2_2 -> conv2_2
I0106 17:13:57.073585  5743 net.cpp:150] Setting up conv2_2
I0106 17:13:57.073596  5743 net.cpp:157] Top shape: 1 128 250 250 (8000000)
I0106 17:13:57.073601  5743 net.cpp:165] Memory required for data: 377000032
I0106 17:13:57.073607  5743 layer_factory.hpp:77] Creating layer relu2_2
I0106 17:13:57.073616  5743 net.cpp:106] Creating Layer relu2_2
I0106 17:13:57.073621  5743 net.cpp:454] relu2_2 <- conv2_2
I0106 17:13:57.073626  5743 net.cpp:397] relu2_2 -> conv2_2 (in-place)
I0106 17:13:57.073632  5743 net.cpp:150] Setting up relu2_2
I0106 17:13:57.073637  5743 net.cpp:157] Top shape: 1 128 250 250 (8000000)
I0106 17:13:57.073642  5743 net.cpp:165] Memory required for data: 409000032
I0106 17:13:57.073644  5743 layer_factory.hpp:77] Creating layer pool2
I0106 17:13:57.073652  5743 net.cpp:106] Creating Layer pool2
I0106 17:13:57.073657  5743 net.cpp:454] pool2 <- conv2_2
I0106 17:13:57.073662  5743 net.cpp:411] pool2 -> pool2
I0106 17:13:57.073698  5743 net.cpp:150] Setting up pool2
I0106 17:13:57.073705  5743 net.cpp:157] Top shape: 1 128 125 125 (2000000)
I0106 17:13:57.073709  5743 net.cpp:165] Memory required for data: 417000032
I0106 17:13:57.073714  5743 layer_factory.hpp:77] Creating layer conv3_1
I0106 17:13:57.073722  5743 net.cpp:106] Creating Layer conv3_1
I0106 17:13:57.073726  5743 net.cpp:454] conv3_1 <- pool2
I0106 17:13:57.073732  5743 net.cpp:411] conv3_1 -> conv3_1
I0106 17:13:57.074937  5743 net.cpp:150] Setting up conv3_1
I0106 17:13:57.074954  5743 net.cpp:157] Top shape: 1 256 125 125 (4000000)
I0106 17:13:57.074959  5743 net.cpp:165] Memory required for data: 433000032
I0106 17:13:57.074973  5743 layer_factory.hpp:77] Creating layer relu3_1
I0106 17:13:57.074981  5743 net.cpp:106] Creating Layer relu3_1
I0106 17:13:57.074987  5743 net.cpp:454] relu3_1 <- conv3_1
I0106 17:13:57.074995  5743 net.cpp:397] relu3_1 -> conv3_1 (in-place)
I0106 17:13:57.075003  5743 net.cpp:150] Setting up relu3_1
I0106 17:13:57.075011  5743 net.cpp:157] Top shape: 1 256 125 125 (4000000)
I0106 17:13:57.075013  5743 net.cpp:165] Memory required for data: 449000032
I0106 17:13:57.075017  5743 layer_factory.hpp:77] Creating layer conv3_2
I0106 17:13:57.075027  5743 net.cpp:106] Creating Layer conv3_2
I0106 17:13:57.075032  5743 net.cpp:454] conv3_2 <- conv3_1
I0106 17:13:57.075040  5743 net.cpp:411] conv3_2 -> conv3_2
I0106 17:13:57.076508  5743 net.cpp:150] Setting up conv3_2
I0106 17:13:57.076527  5743 net.cpp:157] Top shape: 1 256 125 125 (4000000)
I0106 17:13:57.076539  5743 net.cpp:165] Memory required for data: 465000032
I0106 17:13:57.076547  5743 layer_factory.hpp:77] Creating layer relu3_2
I0106 17:13:57.076555  5743 net.cpp:106] Creating Layer relu3_2
I0106 17:13:57.076560  5743 net.cpp:454] relu3_2 <- conv3_2
I0106 17:13:57.076573  5743 net.cpp:397] relu3_2 -> conv3_2 (in-place)
I0106 17:13:57.076581  5743 net.cpp:150] Setting up relu3_2
I0106 17:13:57.076586  5743 net.cpp:157] Top shape: 1 256 125 125 (4000000)
I0106 17:13:57.076589  5743 net.cpp:165] Memory required for data: 481000032
I0106 17:13:57.076601  5743 layer_factory.hpp:77] Creating layer conv3_3
I0106 17:13:57.076613  5743 net.cpp:106] Creating Layer conv3_3
I0106 17:13:57.076617  5743 net.cpp:454] conv3_3 <- conv3_2
I0106 17:13:57.076632  5743 net.cpp:411] conv3_3 -> conv3_3
I0106 17:13:57.078116  5743 net.cpp:150] Setting up conv3_3
I0106 17:13:57.078135  5743 net.cpp:157] Top shape: 1 256 125 125 (4000000)
I0106 17:13:57.078140  5743 net.cpp:165] Memory required for data: 497000032
I0106 17:13:57.078147  5743 layer_factory.hpp:77] Creating layer relu3_3
I0106 17:13:57.078157  5743 net.cpp:106] Creating Layer relu3_3
I0106 17:13:57.078162  5743 net.cpp:454] relu3_3 <- conv3_3
I0106 17:13:57.078168  5743 net.cpp:397] relu3_3 -> conv3_3 (in-place)
I0106 17:13:57.078183  5743 net.cpp:150] Setting up relu3_3
I0106 17:13:57.078189  5743 net.cpp:157] Top shape: 1 256 125 125 (4000000)
I0106 17:13:57.078192  5743 net.cpp:165] Memory required for data: 513000032
I0106 17:13:57.078197  5743 layer_factory.hpp:77] Creating layer pool3
I0106 17:13:57.078204  5743 net.cpp:106] Creating Layer pool3
I0106 17:13:57.078217  5743 net.cpp:454] pool3 <- conv3_3
I0106 17:13:57.078229  5743 net.cpp:411] pool3 -> pool3
I0106 17:13:57.078274  5743 net.cpp:150] Setting up pool3
I0106 17:13:57.078282  5743 net.cpp:157] Top shape: 1 256 63 63 (1016064)
I0106 17:13:57.078286  5743 net.cpp:165] Memory required for data: 517064288
I0106 17:13:57.078290  5743 layer_factory.hpp:77] Creating layer conv4_1
I0106 17:13:57.078299  5743 net.cpp:106] Creating Layer conv4_1
I0106 17:13:57.078303  5743 net.cpp:454] conv4_1 <- pool3
I0106 17:13:57.078310  5743 net.cpp:411] conv4_1 -> conv4_1
I0106 17:13:57.081868  5743 net.cpp:150] Setting up conv4_1
I0106 17:13:57.081898  5743 net.cpp:157] Top shape: 1 512 63 63 (2032128)
I0106 17:13:57.081902  5743 net.cpp:165] Memory required for data: 525192800
I0106 17:13:57.081913  5743 layer_factory.hpp:77] Creating layer relu4_1
I0106 17:13:57.081925  5743 net.cpp:106] Creating Layer relu4_1
I0106 17:13:57.081931  5743 net.cpp:454] relu4_1 <- conv4_1
I0106 17:13:57.081941  5743 net.cpp:397] relu4_1 -> conv4_1 (in-place)
I0106 17:13:57.081953  5743 net.cpp:150] Setting up relu4_1
I0106 17:13:57.081957  5743 net.cpp:157] Top shape: 1 512 63 63 (2032128)
I0106 17:13:57.081960  5743 net.cpp:165] Memory required for data: 533321312
I0106 17:13:57.081972  5743 layer_factory.hpp:77] Creating layer conv4_2
I0106 17:13:57.081981  5743 net.cpp:106] Creating Layer conv4_2
I0106 17:13:57.081986  5743 net.cpp:454] conv4_2 <- conv4_1
I0106 17:13:57.081993  5743 net.cpp:411] conv4_2 -> conv4_2
I0106 17:13:57.087128  5743 net.cpp:150] Setting up conv4_2
I0106 17:13:57.087169  5743 net.cpp:157] Top shape: 1 512 63 63 (2032128)
I0106 17:13:57.087174  5743 net.cpp:165] Memory required for data: 541449824
I0106 17:13:57.087193  5743 layer_factory.hpp:77] Creating layer relu4_2
I0106 17:13:57.087205  5743 net.cpp:106] Creating Layer relu4_2
I0106 17:13:57.087211  5743 net.cpp:454] relu4_2 <- conv4_2
I0106 17:13:57.087220  5743 net.cpp:397] relu4_2 -> conv4_2 (in-place)
I0106 17:13:57.087231  5743 net.cpp:150] Setting up relu4_2
I0106 17:13:57.087244  5743 net.cpp:157] Top shape: 1 512 63 63 (2032128)
I0106 17:13:57.087246  5743 net.cpp:165] Memory required for data: 549578336
I0106 17:13:57.087250  5743 layer_factory.hpp:77] Creating layer conv4_3
I0106 17:13:57.087260  5743 net.cpp:106] Creating Layer conv4_3
I0106 17:13:57.087266  5743 net.cpp:454] conv4_3 <- conv4_2
I0106 17:13:57.087273  5743 net.cpp:411] conv4_3 -> conv4_3
I0106 17:13:57.092371  5743 net.cpp:150] Setting up conv4_3
I0106 17:13:57.092416  5743 net.cpp:157] Top shape: 1 512 63 63 (2032128)
I0106 17:13:57.092419  5743 net.cpp:165] Memory required for data: 557706848
I0106 17:13:57.092432  5743 layer_factory.hpp:77] Creating layer relu4_3
I0106 17:13:57.092447  5743 net.cpp:106] Creating Layer relu4_3
I0106 17:13:57.092453  5743 net.cpp:454] relu4_3 <- conv4_3
I0106 17:13:57.092463  5743 net.cpp:397] relu4_3 -> conv4_3 (in-place)
I0106 17:13:57.092473  5743 net.cpp:150] Setting up relu4_3
I0106 17:13:57.092478  5743 net.cpp:157] Top shape: 1 512 63 63 (2032128)
I0106 17:13:57.092483  5743 net.cpp:165] Memory required for data: 565835360
I0106 17:13:57.092486  5743 layer_factory.hpp:77] Creating layer pool4
I0106 17:13:57.092494  5743 net.cpp:106] Creating Layer pool4
I0106 17:13:57.092501  5743 net.cpp:454] pool4 <- conv4_3
I0106 17:13:57.092507  5743 net.cpp:411] pool4 -> pool4
I0106 17:13:57.092550  5743 net.cpp:150] Setting up pool4
I0106 17:13:57.092569  5743 net.cpp:157] Top shape: 1 512 32 32 (524288)
I0106 17:13:57.092573  5743 net.cpp:165] Memory required for data: 567932512
I0106 17:13:57.092577  5743 layer_factory.hpp:77] Creating layer conv5_1
I0106 17:13:57.092587  5743 net.cpp:106] Creating Layer conv5_1
I0106 17:13:57.092592  5743 net.cpp:454] conv5_1 <- pool4
I0106 17:13:57.092599  5743 net.cpp:411] conv5_1 -> conv5_1
I0106 17:13:57.098131  5743 net.cpp:150] Setting up conv5_1
I0106 17:13:57.098167  5743 net.cpp:157] Top shape: 1 512 32 32 (524288)
I0106 17:13:57.098172  5743 net.cpp:165] Memory required for data: 570029664
I0106 17:13:57.098183  5743 layer_factory.hpp:77] Creating layer relu5_1
I0106 17:13:57.098196  5743 net.cpp:106] Creating Layer relu5_1
I0106 17:13:57.098202  5743 net.cpp:454] relu5_1 <- conv5_1
I0106 17:13:57.098214  5743 net.cpp:397] relu5_1 -> conv5_1 (in-place)
I0106 17:13:57.098225  5743 net.cpp:150] Setting up relu5_1
I0106 17:13:57.098230  5743 net.cpp:157] Top shape: 1 512 32 32 (524288)
I0106 17:13:57.098234  5743 net.cpp:165] Memory required for data: 572126816
I0106 17:13:57.098237  5743 layer_factory.hpp:77] Creating layer conv5_2
I0106 17:13:57.098248  5743 net.cpp:106] Creating Layer conv5_2
I0106 17:13:57.098253  5743 net.cpp:454] conv5_2 <- conv5_1
I0106 17:13:57.098263  5743 net.cpp:411] conv5_2 -> conv5_2
I0106 17:13:57.103655  5743 net.cpp:150] Setting up conv5_2
I0106 17:13:57.103695  5743 net.cpp:157] Top shape: 1 512 32 32 (524288)
I0106 17:13:57.103699  5743 net.cpp:165] Memory required for data: 574223968
I0106 17:13:57.103711  5743 layer_factory.hpp:77] Creating layer relu5_2
I0106 17:13:57.103725  5743 net.cpp:106] Creating Layer relu5_2
I0106 17:13:57.103731  5743 net.cpp:454] relu5_2 <- conv5_2
I0106 17:13:57.103742  5743 net.cpp:397] relu5_2 -> conv5_2 (in-place)
I0106 17:13:57.103756  5743 net.cpp:150] Setting up relu5_2
I0106 17:13:57.103762  5743 net.cpp:157] Top shape: 1 512 32 32 (524288)
I0106 17:13:57.103766  5743 net.cpp:165] Memory required for data: 576321120
I0106 17:13:57.103770  5743 layer_factory.hpp:77] Creating layer conv5_3
I0106 17:13:57.103780  5743 net.cpp:106] Creating Layer conv5_3
I0106 17:13:57.103785  5743 net.cpp:454] conv5_3 <- conv5_2
I0106 17:13:57.103793  5743 net.cpp:411] conv5_3 -> conv5_3
I0106 17:13:57.108955  5743 net.cpp:150] Setting up conv5_3
I0106 17:13:57.109001  5743 net.cpp:157] Top shape: 1 512 32 32 (524288)
I0106 17:13:57.109006  5743 net.cpp:165] Memory required for data: 578418272
I0106 17:13:57.109017  5743 layer_factory.hpp:77] Creating layer relu5_3
I0106 17:13:57.109030  5743 net.cpp:106] Creating Layer relu5_3
I0106 17:13:57.109035  5743 net.cpp:454] relu5_3 <- conv5_3
I0106 17:13:57.109045  5743 net.cpp:397] relu5_3 -> conv5_3 (in-place)
I0106 17:13:57.109056  5743 net.cpp:150] Setting up relu5_3
I0106 17:13:57.109068  5743 net.cpp:157] Top shape: 1 512 32 32 (524288)
I0106 17:13:57.109072  5743 net.cpp:165] Memory required for data: 580515424
I0106 17:13:57.109076  5743 layer_factory.hpp:77] Creating layer upsample5_3
I0106 17:13:57.109100  5743 net.cpp:106] Creating Layer upsample5_3
I0106 17:13:57.109115  5743 net.cpp:454] upsample5_3 <- conv5_3
I0106 17:13:57.109122  5743 net.cpp:411] upsample5_3 -> upsample5_3
I0106 17:13:57.109525  5743 net.cpp:150] Setting up upsample5_3
I0106 17:13:57.109535  5743 net.cpp:157] Top shape: 1 512 63 63 (2032128)
I0106 17:13:57.109539  5743 net.cpp:165] Memory required for data: 588643936
I0106 17:13:57.109545  5743 layer_factory.hpp:77] Creating layer upsample5_3_upsample5_3_0_split
I0106 17:13:57.109553  5743 net.cpp:106] Creating Layer upsample5_3_upsample5_3_0_split
I0106 17:13:57.109558  5743 net.cpp:454] upsample5_3_upsample5_3_0_split <- upsample5_3
I0106 17:13:57.109565  5743 net.cpp:411] upsample5_3_upsample5_3_0_split -> upsample5_3_upsample5_3_0_split_0
I0106 17:13:57.109571  5743 net.cpp:411] upsample5_3_upsample5_3_0_split -> upsample5_3_upsample5_3_0_split_1
I0106 17:13:57.109613  5743 net.cpp:150] Setting up upsample5_3_upsample5_3_0_split
I0106 17:13:57.109629  5743 net.cpp:157] Top shape: 1 512 63 63 (2032128)
I0106 17:13:57.109642  5743 net.cpp:157] Top shape: 1 512 63 63 (2032128)
I0106 17:13:57.109644  5743 net.cpp:165] Memory required for data: 604900960
I0106 17:13:57.109648  5743 layer_factory.hpp:77] Creating layer rpn_cls_score
I0106 17:13:57.109674  5743 net.cpp:106] Creating Layer rpn_cls_score
I0106 17:13:57.109679  5743 net.cpp:454] rpn_cls_score <- upsample5_3_upsample5_3_0_split_0
I0106 17:13:57.109688  5743 net.cpp:411] rpn_cls_score -> rpn_cls_score
I0106 17:13:57.110556  5743 net.cpp:150] Setting up rpn_cls_score
I0106 17:13:57.110594  5743 net.cpp:157] Top shape: 1 108 63 63 (428652)
I0106 17:13:57.110601  5743 net.cpp:165] Memory required for data: 606615568
I0106 17:13:57.110608  5743 layer_factory.hpp:77] Creating layer rpn_cls_score_rpn_cls_score_0_split
I0106 17:13:57.110615  5743 net.cpp:106] Creating Layer rpn_cls_score_rpn_cls_score_0_split
I0106 17:13:57.110620  5743 net.cpp:454] rpn_cls_score_rpn_cls_score_0_split <- rpn_cls_score
I0106 17:13:57.110625  5743 net.cpp:411] rpn_cls_score_rpn_cls_score_0_split -> rpn_cls_score_rpn_cls_score_0_split_0
I0106 17:13:57.110633  5743 net.cpp:411] rpn_cls_score_rpn_cls_score_0_split -> rpn_cls_score_rpn_cls_score_0_split_1
I0106 17:13:57.110669  5743 net.cpp:150] Setting up rpn_cls_score_rpn_cls_score_0_split
I0106 17:13:57.110677  5743 net.cpp:157] Top shape: 1 108 63 63 (428652)
I0106 17:13:57.110682  5743 net.cpp:157] Top shape: 1 108 63 63 (428652)
I0106 17:13:57.110687  5743 net.cpp:165] Memory required for data: 610044784
I0106 17:13:57.110690  5743 layer_factory.hpp:77] Creating layer rpn-data
I0106 17:13:57.111366  5743 net.cpp:106] Creating Layer rpn-data
I0106 17:13:57.111377  5743 net.cpp:454] rpn-data <- rpn_cls_score_rpn_cls_score_0_split_0
I0106 17:13:57.111383  5743 net.cpp:454] rpn-data <- gt_boxes
I0106 17:13:57.111388  5743 net.cpp:454] rpn-data <- im_info
I0106 17:13:57.111395  5743 net.cpp:454] rpn-data <- data_input-data_0_split_1
I0106 17:13:57.111404  5743 net.cpp:411] rpn-data -> rpn_labels
I0106 17:13:57.111414  5743 net.cpp:411] rpn-data -> rpn_bbox_targets
I0106 17:13:57.111424  5743 net.cpp:411] rpn-data -> rpn_bbox_inside_weights
I0106 17:13:57.111433  5743 net.cpp:411] rpn-data -> rpn_bbox_outside_weights
I0106 17:13:57.113605  5743 net.cpp:150] Setting up rpn-data
I0106 17:13:57.113629  5743 net.cpp:157] Top shape: 1 1 3402 63 (214326)
I0106 17:13:57.113636  5743 net.cpp:157] Top shape: 1 270 63 63 (1071630)
I0106 17:13:57.113639  5743 net.cpp:157] Top shape: 1 270 63 63 (1071630)
I0106 17:13:57.113644  5743 net.cpp:157] Top shape: 1 270 63 63 (1071630)
I0106 17:13:57.113647  5743 net.cpp:165] Memory required for data: 623761648
I0106 17:13:57.113652  5743 layer_factory.hpp:77] Creating layer rpn_cls_score_reshape
I0106 17:13:57.113663  5743 net.cpp:106] Creating Layer rpn_cls_score_reshape
I0106 17:13:57.113668  5743 net.cpp:454] rpn_cls_score_reshape <- rpn_cls_score_rpn_cls_score_0_split_1
I0106 17:13:57.113677  5743 net.cpp:411] rpn_cls_score_reshape -> rpn_cls_score_reshape
I0106 17:13:57.113718  5743 net.cpp:150] Setting up rpn_cls_score_reshape
I0106 17:13:57.113734  5743 net.cpp:157] Top shape: 1 2 3402 63 (428652)
I0106 17:13:57.113744  5743 net.cpp:165] Memory required for data: 625476256
I0106 17:13:57.113749  5743 layer_factory.hpp:77] Creating layer rpn_loss_cls
I0106 17:13:57.113756  5743 net.cpp:106] Creating Layer rpn_loss_cls
I0106 17:13:57.113762  5743 net.cpp:454] rpn_loss_cls <- rpn_cls_score_reshape
I0106 17:13:57.113775  5743 net.cpp:454] rpn_loss_cls <- rpn_labels
I0106 17:13:57.113790  5743 net.cpp:411] rpn_loss_cls -> rpn_cls_loss
I0106 17:13:57.113801  5743 layer_factory.hpp:77] Creating layer rpn_loss_cls
I0106 17:13:57.114977  5743 net.cpp:150] Setting up rpn_loss_cls
I0106 17:13:57.114995  5743 net.cpp:157] Top shape: (1)
I0106 17:13:57.115000  5743 net.cpp:160]     with loss weight 1
I0106 17:13:57.115016  5743 net.cpp:165] Memory required for data: 625476260
I0106 17:13:57.115021  5743 layer_factory.hpp:77] Creating layer rpn_bbox_pred
I0106 17:13:57.115036  5743 net.cpp:106] Creating Layer rpn_bbox_pred
I0106 17:13:57.115041  5743 net.cpp:454] rpn_bbox_pred <- upsample5_3_upsample5_3_0_split_1
I0106 17:13:57.115047  5743 net.cpp:411] rpn_bbox_pred -> rpn_bbox_pred
I0106 17:13:57.117694  5743 net.cpp:150] Setting up rpn_bbox_pred
I0106 17:13:57.117713  5743 net.cpp:157] Top shape: 1 270 63 63 (1071630)
I0106 17:13:57.117717  5743 net.cpp:165] Memory required for data: 629762780
I0106 17:13:57.117727  5743 layer_factory.hpp:77] Creating layer rpn_loss_bbox
I0106 17:13:57.117735  5743 net.cpp:106] Creating Layer rpn_loss_bbox
I0106 17:13:57.117739  5743 net.cpp:454] rpn_loss_bbox <- rpn_bbox_pred
I0106 17:13:57.117745  5743 net.cpp:454] rpn_loss_bbox <- rpn_bbox_targets
I0106 17:13:57.117750  5743 net.cpp:454] rpn_loss_bbox <- rpn_bbox_inside_weights
…
