…
snapshot: 0
snapshot_prefix: "vgg16_faster_rcnn"
average_loss: 20
iter_size: 2
I0116 21:09:04.187047 11833 solver.cpp:81] Creating training net from train_net file: models/rrpn/VGG16/faster_rcnn_end2end/study_train.prototxt
I0116 21:09:04.187578 11833 net.cpp:49] Initializing net from parameters: 
name: "VGG_ILSVRC_16_layers"
state {
  phase: TRAIN
}
layer {
  name: "input-data"
  type: "Python"
  top: "data"
  top: "im_info"
  top: "gt_boxes"
  python_param {
    module: "rotation.rlayer"
    layer: "RoIDataLayer"
    param_str: "\'num_classes\': 2"
  }
}
layer {
  name: "conv1_1"
  type: "Convolution"
  bottom: "data"
  top: "conv1_1"
  param {
    lr_mult: 0
  }
  param {
    lr_mult: 0
  }
  convolution_param {
    num_output: 64
    pad: 1
    kernel_size: 3
  }
}
layer {
  name: "relu1_1"
  type: "ReLU"
  bottom: "conv1_1"
  top: "conv1_1"
}
layer {
  name: "conv1_2"
  type: "Convolution"
  bottom: "conv1_1"
  top: "conv1_2"
  param {
    lr_mult: 0
  }
  param {
    lr_mult: 0
  }
  convolution_param {
    num_output: 64
    pad: 1
    kernel_size: 3
  }
}
layer {
  name: "relu1_2"
  type: "ReLU"
  bottom: "conv1_2"
  top: "conv1_2"
}
layer {
  name: "pool1"
  type: "Pooling"
  bottom: "conv1_2"
  top: "pool1"
  pooling_param {
    pool: MAX
    kernel_size: 2
    stride: 2
  }
}
layer {
  name: "conv2_1"
  type: "Convolution"
  bottom: "pool1"
  top: "conv2_1"
  param {
    lr_mult: 0
  }
  param {
    lr_mult: 0
  }
  convolution_param {
    num_output: 128
    pad: 1
    kernel_size: 3
  }
}
layer {
  name: "relu2_1"
  type: "ReLU"
  bottom: "conv2_1"
  top: "conv2_1"
}
layer {
  name: "conv2_2"
  type: "Convolution"
  bottom: "conv2_1"
  top: "conv2_2"
  param {
    lr_mult: 0
  }
  param {
    lr_mult: 0
  }
  convolution_param {
    num_output: 128
    pad: 1
    kernel_size: 3
  }
}
layer {
  name: "relu2_2"
  type: "ReLU"
  bottom: "conv2_2"
  top: "conv2_2"
}
layer {
  name: "pool2"
  type: "Pooling"
  bottom: "conv2_2"
  top: "pool2"
  pooling_param {
    pool: MAX
    kernel_size: 2
    stride: 2
  }
}
layer {
  name: "conv3_1"
  type: "Convolution"
  bottom: "pool2"
  top: "conv3_1"
  param {
    lr_mult: 0
  }
  param {
    lr_mult: 0
  }
  convolution_param {
    num_output: 256
    pad: 1
    kernel_size: 3
  }
}
layer {
  name: "relu3_1"
  type: "ReLU"
  bottom: "conv3_1"
  top: "conv3_1"
}
layer {
  name: "conv3_2"
  type: "Convolution"
  bottom: "conv3_1"
  top: "conv3_2"
  param {
    lr_mult: 0
  }
  param {
    lr_mult: 0
  }
  convolution_param {
    num_output: 256
    pad: 1
    kernel_size: 3
  }
}
layer {
  name: "relu3_2"
  type: "ReLU"
  bottom: "conv3_2"
  top: "conv3_2"
}
layer {
  name: "conv3_3"
  type: "Convolution"
  bottom: "conv3_2"
  top: "conv3_3"
  param {
    lr_mult: 0
  }
  param {
    lr_mult: 0
  }
  convolution_param {
    num_output: 256
    pad: 1
    kernel_size: 3
  }
}
layer {
  name: "relu3_3"
  type: "ReLU"
  bottom: "conv3_3"
  top: "conv3_3"
}
layer {
  name: "pool3"
  type: "Pooling"
  bottom: "conv3_3"
  top: "pool3"
  pooling_param {
    pool: MAX
    kernel_size: 2
    stride: 2
  }
}
layer {
  name: "conv4_1"
  type: "Convolution"
  bottom: "pool3"
  top: "conv4_1"
  param {
    lr_mult: 0
    decay_mult: 0
  }
  param {
    lr_mult: 0
  }
  convolution_param {
    num_output: 512
    pad: 1
    kernel_size: 3
  }
}
layer {
  name: "relu4_1"
  type: "ReLU"
  bottom: "conv4_1"
  top: "conv4_1"
}
layer {
  name: "conv4_2"
  type: "Convolution"
  bottom: "conv4_1"
  top: "conv4_2"
  param {
    lr_mult: 0
    decay_mult: 0
  }
  param {
    lr_mult: 0
  }
  convolution_param {
    num_output: 512
    pad: 1
    kernel_size: 3
  }
}
layer {
  name: "relu4_2"
  type: "ReLU"
  bottom: "conv4_2"
  top: "conv4_2"
}
layer {
  name: "conv4_3"
  type: "Convolution"
  bottom: "conv4_2"
  top: "conv4_3"
  param {
    lr_mult: 0
    decay_mult: 0
  }
  param {
    lr_mult: 0
  }
  convolution_param {
    num_output: 512
    pad: 1
    kernel_size: 3
  }
}
layer {
  name: "relu4_3"
  type: "ReLU"
  bottom: "conv4_3"
  top: "conv4_3"
}
layer {
  name: "pool4"
  type: "Pooling"
  bottom: "conv4_3"
  top: "pool4"
  pooling_param {
    pool: MAX
    kernel_size: 2
    stride: 2
  }
}
layer {
  name: "conv5_1"
  type: "Convolution"
  bottom: "pool4"
  top: "conv5_1"
  param {
    lr_mult: 0.1
    decay_mult: 0.1
  }
  param {
    lr_mult: 0.2
    decay_mult: 0
  }
  convolution_param {
    num_output: 512
    pad: 1
    kernel_size: 3
  }
}
layer {
  name: "relu5_1"
  type: "ReLU"
  bottom: "conv5_1"
  top: "conv5_1"
}
layer {
  name: "conv5_2"
  type: "Convolution"
  bottom: "conv5_1"
  top: "conv5_2"
  param {
    lr_mult: 0.1
    decay_mult: 0.1
  }
  param {
    lr_mult: 0.2
    decay_mult: 0
  }
  convolution_param {
    num_output: 512
    pad: 1
    kernel_size: 3
  }
}
layer {
  name: "relu5_2"
  type: "ReLU"
  bottom: "conv5_2"
  top: "conv5_2"
}
layer {
  name: "conv5_3"
  type: "Convolution"
  bottom: "conv5_2"
  top: "conv5_3"
  param {
    lr_mult: 0.1
    decay_mult: 0.1
  }
  param {
    lr_mult: 0.2
    decay_mult: 0
  }
  convolution_param {
    num_output: 512
    pad: 1
    kernel_size: 3
  }
}
layer {
  name: "relu5_3"
  type: "ReLU"
  bottom: "conv5_3"
  top: "conv5_3"
}
layer {
  name: "upsample5_3"
  type: "Deconvolution"
  bottom: "conv5_3"
  top: "upsample5_3"
  param {
    lr_mult: 0
    decay_mult: 0
  }
  param {
    lr_mult: 0
    decay_mult: 0
  }
  convolution_param {
    num_output: 512
    pad: 1
    kernel_size: 3
    group: 512
    stride: 2
    weight_filler {
      type: "bilinear"
    }
  }
}
layer {
  name: "rpn_cls_score"
  type: "Convolution"
  bottom: "upsample5_3"
  top: "rpn_cls_score"
  param {
    lr_mult: 1
  }
  param {
    lr_mult: 2
  }
  convolution_param {
    num_output: 108
    pad: 0
    kernel_size: 1
    stride: 1
    weight_filler {
      type: "gaussian"
      std: 0.01
    }
    bias_filler {
      type: "constant"
      value: 0
    }
  }
}
layer {
  name: "rpn-data"
  type: "Python"
  bottom: "rpn_cls_score"
  bottom: "gt_boxes"
  bottom: "im_info"
  bottom: "data"
  top: "rpn_labels"
  top: "rpn_bbox_targets"
  top: "rpn_bbox_inside_weights"
  top: "rpn_bbox_outside_weights"
  python_param {
    module: "rotation.anchor_target_layer"
    layer: "AnchorTargetLayer"
    param_str: "\'feat_stride\': 8"
  }
}
layer {
  name: "rpn_cls_score_reshape"
  type: "Reshape"
  bottom: "rpn_cls_score"
  top: "rpn_cls_score_reshape"
  reshape_param {
    shape {
      dim: 0
      dim: 2
      dim: -1
      dim: 0
    }
  }
}
layer {
  name: "rpn_loss_cls"
  type: "SoftmaxWithLoss"
  bottom: "rpn_cls_score_reshape"
  bottom: "rpn_labels"
  top: "rpn_cls_loss"
  loss_weight: 1
  propagate_down: true
  propagate_down: false
  loss_param {
    ignore_label: -1
    normalize: true
  }
}
layer {
  name: "rpn_bbox_pred"
  type: "Convolution"
  bottom: "upsample5_3"
  top: "rpn_bbox_pred"
  param {
    lr_mult: 0
  }
  param {
    lr_mult: 0
  }
  convolution_param {
    num_output: 270
    pad: 0
    kernel_size: 1
    stride: 1
    weight_filler {
      type: "gaussian"
      std: 0.01
    }
    bias_filler {
      type: "constant"
      value: 0
    }
  }
}
layer {
  name: "rpn_loss_bbox"
  type: "SmoothL1Loss"
  bottom: "rpn_bbox_pred"
  bottom: "rpn_bbox_targets"
  bottom: "rpn_bbox_inside_weights"
  bottom: "rpn_bbox_outside_weights"
  top: "rpn_loss_bbox"
  loss_weight: 0
  smooth_l1_loss_param {
    sigma: 3
  }
}
I0116 21:09:04.187744 11833 layer_factory.hpp:77] Creating layer input-data
I0116 21:09:04.218152 11833 net.cpp:106] Creating Layer input-data
I0116 21:09:04.218178 11833 net.cpp:411] input-data -> data
I0116 21:09:04.218195 11833 net.cpp:411] input-data -> im_info
I0116 21:09:04.218206 11833 net.cpp:411] input-data -> gt_boxes
…
           'USE_PREFETCH': False},
 'USE_GPU_NMS': True}
MSRA_TRAIN
L_ICDAR2003_TRAIN: 42
total 42
the text instance of total:  755
42 roidb entries
Output will be saved to `.`
Filtered 0 roidb entries: 42 -> 42
Computing bounding-box regression targets...
bbox target means:
[[ 0.  0.  0.  0.  0.]
 [ 0.  0.  0.  0.  0.]]
[ 0.  0.  0.  0.  0.]
bbox target stdevs:
[[ 0.1  0.1  0.2  0.2  1. ]
 [ 0.1  0.1  0.2  0.2  1. ]]
[ 0.1  0.1  0.2  0.2  1. ]
Normalizing targets
done
Setup the RoIDataLayer
RoiDataLayer: nameI0116 21:09:04.220330 11833 net.cpp:150] Setting up input-data
I0116 21:09:04.220356 11833 net.cpp:157] Top shape: 1 3 500 500 (750000)
I0116 21:09:04.220365 11833 net.cpp:157] Top shape: 1 3 (3)
I0116 21:09:04.220371 11833 net.cpp:157] Top shape: 1 5 (5)
I0116 21:09:04.220376 11833 net.cpp:165] Memory required for data: 3000032
I0116 21:09:04.220384 11833 layer_factory.hpp:77] Creating layer data_input-data_0_split
I0116 21:09:04.220398 11833 net.cpp:106] Creating Layer data_input-data_0_split
I0116 21:09:04.220405 11833 net.cpp:454] data_input-data_0_split <- data
I0116 21:09:04.220415 11833 net.cpp:411] data_input-data_0_split -> data_input-data_0_split_0
I0116 21:09:04.220427 11833 net.cpp:411] data_input-data_0_split -> data_input-data_0_split_1
I0116 21:09:04.220471 11833 net.cpp:150] Setting up data_input-data_0_split
I0116 21:09:04.220480 11833 net.cpp:157] Top shape: 1 3 500 500 (750000)
I0116 21:09:04.220487 11833 net.cpp:157] Top shape: 1 3 500 500 (750000)
I0116 21:09:04.220492 11833 net.cpp:165] Memory required for data: 9000032
I0116 21:09:04.220497 11833 layer_factory.hpp:77] Creating layer conv1_1
I0116 21:09:04.220511 11833 net.cpp:106] Creating Layer conv1_1
I0116 21:09:04.220517 11833 net.cpp:454] conv1_1 <- data_input-data_0_split_0
I0116 21:09:04.220526 11833 net.cpp:411] conv1_1 -> conv1_1
I0116 21:09:04.223116 11833 net.cpp:150] Setting up conv1_1
I0116 21:09:04.223145 11833 net.cpp:157] Top shape: 1 64 500 500 (16000000)
I0116 21:09:04.223151 11833 net.cpp:165] Memory required for data: 73000032
I0116 21:09:04.223173 11833 layer_factory.hpp:77] Creating layer relu1_1
I0116 21:09:04.223186 11833 net.cpp:106] Creating Layer relu1_1
I0116 21:09:04.223191 11833 net.cpp:454] relu1_1 <- conv1_1
I0116 21:09:04.223201 11833 net.cpp:397] relu1_1 -> conv1_1 (in-place)
I0116 21:09:04.223212 11833 net.cpp:150] Setting up relu1_1
I0116 21:09:04.223219 11833 net.cpp:157] Top shape: 1 64 500 500 (16000000)
I0116 21:09:04.223223 11833 net.cpp:165] Memory required for data: 137000032
I0116 21:09:04.223228 11833 layer_factory.hpp:77] Creating layer conv1_2
I0116 21:09:04.223243 11833 net.cpp:106] Creating Layer conv1_2
I0116 21:09:04.223251 11833 net.cpp:454] conv1_2 <- conv1_1
I0116 21:09:04.223263 11833 net.cpp:411] conv1_2 -> conv1_2
I0116 21:09:04.224795 11833 net.cpp:150] Setting up conv1_2
I0116 21:09:04.224817 11833 net.cpp:157] Top shape: 1 64 500 500 (16000000)
I0116 21:09:04.224822 11833 net.cpp:165] Memory required for data: 201000032
I0116 21:09:04.224836 11833 layer_factory.hpp:77] Creating layer relu1_2
I0116 21:09:04.224851 11833 net.cpp:106] Creating Layer relu1_2
I0116 21:09:04.224858 11833 net.cpp:454] relu1_2 <- conv1_2
I0116 21:09:04.224866 11833 net.cpp:397] relu1_2 -> conv1_2 (in-place)
I0116 21:09:04.224876 11833 net.cpp:150] Setting up relu1_2
I0116 21:09:04.224884 11833 net.cpp:157] Top shape: 1 64 500 500 (16000000)
I0116 21:09:04.224889 11833 net.cpp:165] Memory required for data: 265000032
I0116 21:09:04.224894 11833 layer_factory.hpp:77] Creating layer pool1
I0116 21:09:04.224902 11833 net.cpp:106] Creating Layer pool1
I0116 21:09:04.224907 11833 net.cpp:454] pool1 <- conv1_2
I0116 21:09:04.224916 11833 net.cpp:411] pool1 -> pool1
I0116 21:09:04.224969 11833 net.cpp:150] Setting up pool1
I0116 21:09:04.224980 11833 net.cpp:157] Top shape: 1 64 250 250 (4000000)
I0116 21:09:04.224985 11833 net.cpp:165] Memory required for data: 281000032
I0116 21:09:04.224992 11833 layer_factory.hpp:77] Creating layer conv2_1
I0116 21:09:04.225001 11833 net.cpp:106] Creating Layer conv2_1
I0116 21:09:04.225008 11833 net.cpp:454] conv2_1 <- pool1
I0116 21:09:04.225018 11833 net.cpp:411] conv2_1 -> conv2_1
I0116 21:09:04.226428 11833 net.cpp:150] Setting up conv2_1
I0116 21:09:04.226449 11833 net.cpp:157] Top shape: 1 128 250 250 (8000000)
I0116 21:09:04.226455 11833 net.cpp:165] Memory required for data: 313000032
I0116 21:09:04.226471 11833 layer_factory.hpp:77] Creating layer relu2_1
I0116 21:09:04.226483 11833 net.cpp:106] Creating Layer relu2_1
I0116 21:09:04.226490 11833 net.cpp:454] relu2_1 <- conv2_1
I0116 21:09:04.226497 11833 net.cpp:397] relu2_1 -> conv2_1 (in-place)
I0116 21:09:04.226507 11833 net.cpp:150] Setting up relu2_1
I0116 21:09:04.226514 11833 net.cpp:157] Top shape: 1 128 250 250 (8000000)
I0116 21:09:04.226519 11833 net.cpp:165] Memory required for data: 345000032
I0116 21:09:04.226524 11833 layer_factory.hpp:77] Creating layer conv2_2
I0116 21:09:04.226536 11833 net.cpp:106] Creating Layer conv2_2
I0116 21:09:04.226547 11833 net.cpp:454] conv2_2 <- conv2_1
I0116 21:09:04.226557 11833 net.cpp:411] conv2_2 -> conv2_2
I0116 21:09:04.226959 11833 net.cpp:150] Setting up conv2_2
I0116 21:09:04.226974 11833 net.cpp:157] Top shape: 1 128 250 250 (8000000)
I0116 21:09:04.226979 11833 net.cpp:165] Memory required for data: 377000032
I0116 21:09:04.226987 11833 layer_factory.hpp:77] Creating layer relu2_2
I0116 21:09:04.226995 11833 net.cpp:106] Creating Layer relu2_2
I0116 21:09:04.227002 11833 net.cpp:454] relu2_2 <- conv2_2
I0116 21:09:04.227011 11833 net.cpp:397] relu2_2 -> conv2_2 (in-place)
I0116 21:09:04.227020 11833 net.cpp:150] Setting up relu2_2
I0116 21:09:04.227027 11833 net.cpp:157] Top shape: 1 128 250 250 (8000000)
I0116 21:09:04.227031 11833 net.cpp:165] Memory required for data: 409000032
I0116 21:09:04.227036 11833 layer_factory.hpp:77] Creating layer pool2
I0116 21:09:04.227044 11833 net.cpp:106] Creating Layer pool2
I0116 21:09:04.227049 11833 net.cpp:454] pool2 <- conv2_2
I0116 21:09:04.227056 11833 net.cpp:411] pool2 -> pool2
I0116 21:09:04.227102 11833 net.cpp:150] Setting up pool2
I0116 21:09:04.227113 11833 net.cpp:157] Top shape: 1 128 125 125 (2000000)
I0116 21:09:04.227118 11833 net.cpp:165] Memory required for data: 417000032
I0116 21:09:04.227123 11833 layer_factory.hpp:77] Creating layer conv3_1
I0116 21:09:04.227134 11833 net.cpp:106] Creating Layer conv3_1
I0116 21:09:04.227140 11833 net.cpp:454] conv3_1 <- pool2
I0116 21:09:04.227149 11833 net.cpp:411] conv3_1 -> conv3_1
I0116 21:09:04.228667 11833 net.cpp:150] Setting up conv3_1
I0116 21:09:04.228688 11833 net.cpp:157] Top shape: 1 256 125 125 (4000000)
I0116 21:09:04.228694 11833 net.cpp:165] Memory required for data: 433000032
I0116 21:09:04.228709 11833 layer_factory.hpp:77] Creating layer relu3_1
I0116 21:09:04.228719 11833 net.cpp:106] Creating Layer relu3_1
I0116 21:09:04.228725 11833 net.cpp:454] relu3_1 <- conv3_1
I0116 21:09:04.228737 11833 net.cpp:397] relu3_1 -> conv3_1 (in-place)
I0116 21:09:04.228749 11833 net.cpp:150] Setting up relu3_1
I0116 21:09:04.228755 11833 net.cpp:157] Top shape: 1 256 125 125 (4000000)
I0116 21:09:04.228760 11833 net.cpp:165] Memory required for data: 449000032
I0116 21:09:04.228765 11833 layer_factory.hpp:77] Creating layer conv3_2
I0116 21:09:04.228775 11833 net.cpp:106] Creating Layer conv3_2
I0116 21:09:04.228780 11833 net.cpp:454] conv3_2 <- conv3_1
I0116 21:09:04.228791 11833 net.cpp:411] conv3_2 -> conv3_2
I0116 21:09:04.230705 11833 net.cpp:150] Setting up conv3_2
I0116 21:09:04.230726 11833 net.cpp:157] Top shape: 1 256 125 125 (4000000)
I0116 21:09:04.230731 11833 net.cpp:165] Memory required for data: 465000032
I0116 21:09:04.230742 11833 layer_factory.hpp:77] Creating layer relu3_2
I0116 21:09:04.230752 11833 net.cpp:106] Creating Layer relu3_2
I0116 21:09:04.230758 11833 net.cpp:454] relu3_2 <- conv3_2
I0116 21:09:04.230768 11833 net.cpp:397] relu3_2 -> conv3_2 (in-place)
I0116 21:09:04.230779 11833 net.cpp:150] Setting up relu3_2
I0116 21:09:04.230787 11833 net.cpp:157] Top shape: 1 256 125 125 (4000000)
I0116 21:09:04.230792 11833 net.cpp:165] Memory required for data: 481000032
I0116 21:09:04.230796 11833 layer_factory.hpp:77] Creating layer conv3_3
I0116 21:09:04.230811 11833 net.cpp:106] Creating Layer conv3_3
I0116 21:09:04.230818 11833 net.cpp:454] conv3_3 <- conv3_2
I0116 21:09:04.230828 11833 net.cpp:411] conv3_3 -> conv3_3
I0116 21:09:04.232750 11833 net.cpp:150] Setting up conv3_3
I0116 21:09:04.232774 11833 net.cpp:157] Top shape: 1 256 125 125 (4000000)
I0116 21:09:04.232779 11833 net.cpp:165] Memory required for data: 497000032
I0116 21:09:04.232790 11833 layer_factory.hpp:77] Creating layer relu3_3
I0116 21:09:04.232800 11833 net.cpp:106] Creating Layer relu3_3
I0116 21:09:04.232806 11833 net.cpp:454] relu3_3 <- conv3_3
I0116 21:09:04.232816 11833 net.cpp:397] relu3_3 -> conv3_3 (in-place)
I0116 21:09:04.232826 11833 net.cpp:150] Setting up relu3_3
I0116 21:09:04.232833 11833 net.cpp:157] Top shape: 1 256 125 125 (4000000)
I0116 21:09:04.232838 11833 net.cpp:165] Memory required for data: 513000032
I0116 21:09:04.232843 11833 layer_factory.hpp:77] Creating layer pool3
I0116 21:09:04.232852 11833 net.cpp:106] Creating Layer pool3
I0116 21:09:04.232857 11833 net.cpp:454] pool3 <- conv3_3
I0116 21:09:04.232866 11833 net.cpp:411] pool3 -> pool3
I0116 21:09:04.232913 11833 net.cpp:150] Setting up pool3
I0116 21:09:04.232923 11833 net.cpp:157] Top shape: 1 256 63 63 (1016064)
I0116 21:09:04.232928 11833 net.cpp:165] Memory required for data: 517064288
I0116 21:09:04.232933 11833 layer_factory.hpp:77] Creating layer conv4_1
I0116 21:09:04.232945 11833 net.cpp:106] Creating Layer conv4_1
I0116 21:09:04.232996 11833 net.cpp:454] conv4_1 <- pool3
I0116 21:09:04.233012 11833 net.cpp:411] conv4_1 -> conv4_1
I0116 21:09:04.237381 11833 net.cpp:150] Setting up conv4_1
I0116 21:09:04.237413 11833 net.cpp:157] Top shape: 1 512 63 63 (2032128)
I0116 21:09:04.237419 11833 net.cpp:165] Memory required for data: 525192800
I0116 21:09:04.237432 11833 layer_factory.hpp:77] Creating layer relu4_1
I0116 21:09:04.237447 11833 net.cpp:106] Creating Layer relu4_1
I0116 21:09:04.237462 11833 net.cpp:454] relu4_1 <- conv4_1
I0116 21:09:04.237473 11833 net.cpp:397] relu4_1 -> conv4_1 (in-place)
I0116 21:09:04.237486 11833 net.cpp:150] Setting up relu4_1
I0116 21:09:04.237493 11833 net.cpp:157] Top shape: 1 512 63 63 (2032128)
I0116 21:09:04.237498 11833 net.cpp:165] Memory required for data: 533321312
I0116 21:09:04.237504 11833 layer_factory.hpp:77] Creating layer conv4_2
I0116 21:09:04.237514 11833 net.cpp:106] Creating Layer conv4_2
I0116 21:09:04.237524 11833 net.cpp:454] conv4_2 <- conv4_1
I0116 21:09:04.237534 11833 net.cpp:411] conv4_2 -> conv4_2
I0116 21:09:04.243552 11833 net.cpp:150] Setting up conv4_2
I0116 21:09:04.243595 11833 net.cpp:157] Top shape: 1 512 63 63 (2032128)
I0116 21:09:04.243602 11833 net.cpp:165] Memory required for data: 541449824
I0116 21:09:04.243623 11833 layer_factory.hpp:77] Creating layer relu4_2
I0116 21:09:04.243646 11833 net.cpp:106] Creating Layer relu4_2
I0116 21:09:04.243654 11833 net.cpp:454] relu4_2 <- conv4_2
I0116 21:09:04.243664 11833 net.cpp:397] relu4_2 -> conv4_2 (in-place)
I0116 21:09:04.243676 11833 net.cpp:150] Setting up relu4_2
I0116 21:09:04.243683 11833 net.cpp:157] Top shape: 1 512 63 63 (2032128)
I0116 21:09:04.243687 11833 net.cpp:165] Memory required for data: 549578336
I0116 21:09:04.243692 11833 layer_factory.hpp:77] Creating layer conv4_3
I0116 21:09:04.243706 11833 net.cpp:106] Creating Layer conv4_3
I0116 21:09:04.243713 11833 net.cpp:454] conv4_3 <- conv4_2
I0116 21:09:04.243721 11833 net.cpp:411] conv4_3 -> conv4_3
I0116 21:09:04.250308 11833 net.cpp:150] Setting up conv4_3
I0116 21:09:04.250346 11833 net.cpp:157] Top shape: 1 512 63 63 (2032128)
I0116 21:09:04.250351 11833 net.cpp:165] Memory required for data: 557706848
I0116 21:09:04.250365 11833 layer_factory.hpp:77] Creating layer relu4_3
I0116 21:09:04.250380 11833 net.cpp:106] Creating Layer relu4_3
I0116 21:09:04.250387 11833 net.cpp:454] relu4_3 <- conv4_3
I0116 21:09:04.250397 11833 net.cpp:397] relu4_3 -> conv4_3 (in-place)
I0116 21:09:04.250411 11833 net.cpp:150] Setting up relu4_3
I0116 21:09:04.250417 11833 net.cpp:157] Top shape: 1 512 63 63 (2032128)
I0116 21:09:04.250422 11833 net.cpp:165] Memory required for data: 565835360
I0116 21:09:04.250427 11833 layer_factory.hpp:77] Creating layer pool4
I0116 21:09:04.250437 11833 net.cpp:106] Creating Layer pool4
I0116 21:09:04.250444 11833 net.cpp:454] pool4 <- conv4_3
I0116 21:09:04.250452 11833 net.cpp:411] pool4 -> pool4
I0116 21:09:04.250501 11833 net.cpp:150] Setting up pool4
I0116 21:09:04.250512 11833 net.cpp:157] Top shape: 1 512 32 32 (524288)
I0116 21:09:04.250517 11833 net.cpp:165] Memory required for data: 567932512
I0116 21:09:04.250521 11833 layer_factory.hpp:77] Creating layer conv5_1
I0116 21:09:04.250535 11833 net.cpp:106] Creating Layer conv5_1
I0116 21:09:04.250540 11833 net.cpp:454] conv5_1 <- pool4
I0116 21:09:04.250548 11833 net.cpp:411] conv5_1 -> conv5_1
I0116 21:09:04.256835 11833 net.cpp:150] Setting up conv5_1
I0116 21:09:04.256883 11833 net.cpp:157] Top shape: 1 512 32 32 (524288)
I0116 21:09:04.256888 11833 net.cpp:165] Memory required for data: 570029664
I0116 21:09:04.256902 11833 layer_factory.hpp:77] Creating layer relu5_1
I0116 21:09:04.256917 11833 net.cpp:106] Creating Layer relu5_1
I0116 21:09:04.256924 11833 net.cpp:454] relu5_1 <- conv5_1
I0116 21:09:04.256933 11833 net.cpp:397] relu5_1 -> conv5_1 (in-place)
I0116 21:09:04.256947 11833 net.cpp:150] Setting up relu5_1
I0116 21:09:04.256953 11833 net.cpp:157] Top shape: 1 512 32 32 (524288)
I0116 21:09:04.256958 11833 net.cpp:165] Memory required for data: 572126816
I0116 21:09:04.256961 11833 layer_factory.hpp:77] Creating layer conv5_2
I0116 21:09:04.256975 11833 net.cpp:106] Creating Layer conv5_2
I0116 21:09:04.256981 11833 net.cpp:454] conv5_2 <- conv5_1
I0116 21:09:04.256990 11833 net.cpp:411] conv5_2 -> conv5_2
I0116 21:09:04.262907 11833 net.cpp:150] Setting up conv5_2
I0116 21:09:04.262950 11833 net.cpp:157] Top shape: 1 512 32 32 (524288)
I0116 21:09:04.262955 11833 net.cpp:165] Memory required for data: 574223968
I0116 21:09:04.262969 11833 layer_factory.hpp:77] Creating layer relu5_2
I0116 21:09:04.262984 11833 net.cpp:106] Creating Layer relu5_2
I0116 21:09:04.262991 11833 net.cpp:454] relu5_2 <- conv5_2
I0116 21:09:04.263001 11833 net.cpp:397] relu5_2 -> conv5_2 (in-place)
I0116 21:09:04.263013 11833 net.cpp:150] Setting up relu5_2
I0116 21:09:04.263020 11833 net.cpp:157] Top shape: 1 512 32 32 (524288)
I0116 21:09:04.263025 11833 net.cpp:165] Memory required for data: 576321120
I0116 21:09:04.263028 11833 layer_factory.hpp:77] Creating layer conv5_3
I0116 21:09:04.263042 11833 net.cpp:106] Creating Layer conv5_3
I0116 21:09:04.263047 11833 net.cpp:454] conv5_3 <- conv5_2
I0116 21:09:04.263056 11833 net.cpp:411] conv5_3 -> conv5_3
I0116 21:09:04.269085 11833 net.cpp:150] Setting up conv5_3
I0116 21:09:04.269129 11833 net.cpp:157] Top shape: 1 512 32 32 (524288)
I0116 21:09:04.269135 11833 net.cpp:165] Memory required for data: 578418272
I0116 21:09:04.269148 11833 layer_factory.hpp:77] Creating layer relu5_3
I0116 21:09:04.269162 11833 net.cpp:106] Creating Layer relu5_3
I0116 21:09:04.269170 11833 net.cpp:454] relu5_3 <- conv5_3
I0116 21:09:04.269178 11833 net.cpp:397] relu5_3 -> conv5_3 (in-place)
I0116 21:09:04.269191 11833 net.cpp:150] Setting up relu5_3
I0116 21:09:04.269197 11833 net.cpp:157] Top shape: 1 512 32 32 (524288)
I0116 21:09:04.269202 11833 net.cpp:165] Memory required for data: 580515424
I0116 21:09:04.269207 11833 layer_factory.hpp:77] Creating layer upsample5_3
I0116 21:09:04.269228 11833 net.cpp:106] Creating Layer upsample5_3
I0116 21:09:04.269237 11833 net.cpp:454] upsample5_3 <- conv5_3
I0116 21:09:04.269245 11833 net.cpp:411] upsample5_3 -> upsample5_3
I0116 21:09:04.269731 11833 net.cpp:150] Setting up upsample5_3
I0116 21:09:04.269743 11833 net.cpp:157] Top shape: 1 512 63 63 (2032128)
I0116 21:09:04.269747 11833 net.cpp:165] Memory required for data: 588643936
I0116 21:09:04.269755 11833 layer_factory.hpp:77] Creating layer upsample5_3_upsample5_3_0_split
I0116 21:09:04.269764 11833 net.cpp:106] Creating Layer upsample5_3_upsample5_3_0_split
I0116 21:09:04.269769 11833 net.cpp:454] upsample5_3_upsample5_3_0_split <- upsample5_3
I0116 21:09:04.269778 11833 net.cpp:411] upsample5_3_upsample5_3_0_split -> upsample5_3_upsample5_3_0_split_0
I0116 21:09:04.269788 11833 net.cpp:411] upsample5_3_upsample5_3_0_split -> upsample5_3_upsample5_3_0_split_1
I0116 21:09:04.269826 11833 net.cpp:150] Setting up upsample5_3_upsample5_3_0_split
I0116 21:09:04.269836 11833 net.cpp:157] Top shape: 1 512 63 63 (2032128)
I0116 21:09:04.269842 11833 net.cpp:157] Top shape: 1 512 63 63 (2032128)
I0116 21:09:04.269847 11833 net.cpp:165] Memory required for data: 604900960
I0116 21:09:04.269852 11833 layer_factory.hpp:77] Creating layer rpn_cls_score
I0116 21:09:04.269866 11833 net.cpp:106] Creating Layer rpn_cls_score
I0116 21:09:04.269872 11833 net.cpp:454] rpn_cls_score <- upsample5_3_upsample5_3_0_split_0
I0116 21:09:04.269881 11833 net.cpp:411] rpn_cls_score -> rpn_cls_score
I0116 21:09:04.270889 11833 net.cpp:150] Setting up rpn_cls_score
I0116 21:09:04.270900 11833 net.cpp:157] Top shape: 1 108 63 63 (428652)
I0116 21:09:04.270905 11833 net.cpp:165] Memory required for data: 606615568
I0116 21:09:04.270912 11833 layer_factory.hpp:77] Creating layer rpn_cls_score_rpn_cls_score_0_split
I0116 21:09:04.270920 11833 net.cpp:106] Creating Layer rpn_cls_score_rpn_cls_score_0_split
I0116 21:09:04.270925 11833 net.cpp:454] rpn_cls_score_rpn_cls_score_0_split <- rpn_cls_score
I0116 21:09:04.270934 11833 net.cpp:411] rpn_cls_score_rpn_cls_score_0_split -> rpn_cls_score_rpn_cls_score_0_split_0
I0116 21:09:04.270943 11833 net.cpp:411] rpn_cls_score_rpn_cls_score_0_split -> rpn_cls_score_rpn_cls_score_0_split_1
I0116 21:09:04.270980 11833 net.cpp:150] Setting up rpn_cls_score_rpn_cls_score_0_split
I0116 21:09:04.270992 11833 net.cpp:157] Top shape: 1 108 63 63 (428652)
I0116 21:09:04.270998 11833 net.cpp:157] Top shape: 1 108 63 63 (428652)
I0116 21:09:04.271001 11833 net.cpp:165] Memory required for data: 610044784
I0116 21:09:04.271006 11833 layer_factory.hpp:77] Creating layer rpn-data
I0116 21:09:04.280938 11833 net.cpp:106] Creating Layer rpn-data
I0116 21:09:04.280967 11833 net.cpp:454] rpn-data <- rpn_cls_score_rpn_cls_score_0_split_0
I0116 21:09:04.280978 11833 net.cpp:454] rpn-data <- gt_boxes
I0116 21:09:04.280985 11833 net.cpp:454] rpn-data <- im_info
I0116 21:09:04.280992 11833 net.cpp:454] rpn-data <- data_input-data_0_split_1
I0116 21:09:04.281000 11833 net.cpp:411] rpn-data -> rpn_labels
I0116 21:09:04.281013 11833 net.cpp:411] rpn-data -> rpn_bbox_targets
I0116 21:09:04.281023 11833 net.cpp:411] rpn-data -> rpn_bbox_inside_weights
I0116 21:09:04.281031 11833 net.cpp:411] rpn-data -> rpn_bbox_outside_weights
I0116 21:09:04.283624 11833 net.cpp:150] Setting up rpn-data
I0116 21:09:04.283653 11833 net.cpp:157] Top shape: 1 1 3402 63 (214326)
I0116 21:09:04.283659 11833 net.cpp:157] Top shape: 1 270 63 63 (1071630)
I0116 21:09:04.283665 11833 net.cpp:157] Top shape: 1 270 63 63 (1071630)
I0116 21:09:04.283670 11833 net.cpp:157] Top shape: 1 270 63 63 (1071630)
I0116 21:09:04.283675 11833 net.cpp:165] Memory required for data: 623761648
I0116 21:09:04.283682 11833 layer_factory.hpp:77] Creating layer rpn_cls_score_reshape
I0116 21:09:04.283697 11833 net.cpp:106] Creating Layer rpn_cls_score_reshape
I0116 21:09:04.283704 11833 net.cpp:454] rpn_cls_score_reshape <- rpn_cls_score_rpn_cls_score_0_split_1
I0116 21:09:04.283715 11833 net.cpp:411] rpn_cls_score_reshape -> rpn_cls_score_reshape
I0116 21:09:04.283756 11833 net.cpp:150] Setting up rpn_cls_score_reshape
I0116 21:09:04.283767 11833 net.cpp:157] Top shape: 1 2 3402 63 (428652)
I0116 21:09:04.283771 11833 net.cpp:165] Memory required for data: 625476256
I0116 21:09:04.283776 11833 layer_factory.hpp:77] Creating layer rpn_loss_cls
I0116 21:09:04.283787 11833 net.cpp:106] Creating Layer rpn_loss_cls
I0116 21:09:04.283792 11833 net.cpp:454] rpn_loss_cls <- rpn_cls_score_reshape
I0116 21:09:04.283797 11833 net.cpp:454] rpn_loss_cls <- rpn_labels
I0116 21:09:04.283807 11833 net.cpp:411] rpn_loss_cls -> rpn_cls_loss
I0116 21:09:04.283818 11833 layer_factory.hpp:77] Creating layer rpn_loss_cls
I0116 21:09:04.285538 11833 net.cpp:150] Setting up rpn_loss_cls
I0116 21:09:04.285563 11833 net.cpp:157] Top shape: (1)
I0116 21:09:04.285568 11833 net.cpp:160]     with loss weight 1
I0116 21:09:04.285594 11833 net.cpp:165] Memory required for data: 625476260
I0116 21:09:04.285600 11833 layer_factory.hpp:77] Creating layer rpn_bbox_pred
I0116 21:09:04.285620 11833 net.cpp:106] Creating Layer rpn_bbox_pred
I0116 21:09:04.285627 11833 net.cpp:454] rpn_bbox_pred <- upsample5_3_upsample5_3_0_split_1
I0116 21:09:04.285645 11833 net.cpp:411] rpn_bbox_pred -> rpn_bbox_pred
I0116 21:09:04.288743 11833 net.cpp:150] Setting up rpn_bbox_pred
I0116 21:09:04.288765 11833 net.cpp:157] Top shape: 1 270 63 63 (1071630)
I0116 21:09:04.288771 11833 net.cpp:165] Memory required for data: 629762780
I0116 21:09:04.288781 11833 layer_factory.hpp:77] Creating layer rpn_loss_bbox
I0116 21:09:04.288794 11833 net.cpp:106] Creating Layer rpn_loss_bbox
I0116 21:09:04.288800 11833 net.cpp:454] rpn_loss_bbox <- rpn_bbox_pred
I0116 21:09:04.288805 11833 net.cpp:454] rpn_loss_bbox <- rpn_bbox_targets
I0116 21:09:04.288811 11833 net.cpp:454] rpn_loss_bbox <- rpn_bbox_inside_weights
…
