…
snapshot: 0
snapshot_prefix: "vgg16_faster_rcnn"
average_loss: 100
iter_size: 2
I0102 21:27:14.517628  3334 solver.cpp:81] Creating training net from train_net file: models/rrpn/VGG16/faster_rcnn_end2end/study_train.prototxt
I0102 21:27:14.539525  3334 net.cpp:49] Initializing net from parameters: 
name: "VGG_ILSVRC_16_layers"
state {
  phase: TRAIN
}
layer {
  name: "input-data"
  type: "Python"
  top: "data"
  top: "im_info"
  top: "gt_boxes"
  python_param {
    module: "rotation.rlayer"
    layer: "RoIDataLayer"
    param_str: "\'num_classes\': 2"
  }
}
layer {
  name: "conv1_1"
  type: "Convolution"
  bottom: "data"
  top: "conv1_1"
  param {
    lr_mult: 0.1
  }
  param {
    lr_mult: 0.2
  }
  convolution_param {
    num_output: 64
    pad: 1
    kernel_size: 3
  }
}
layer {
  name: "relu1_1"
  type: "ReLU"
  bottom: "conv1_1"
  top: "conv1_1"
}
layer {
  name: "conv1_2"
  type: "Convolution"
  bottom: "conv1_1"
  top: "conv1_2"
  param {
    lr_mult: 0.1
  }
  param {
    lr_mult: 0.2
  }
  convolution_param {
    num_output: 64
    pad: 1
    kernel_size: 3
  }
}
layer {
  name: "relu1_2"
  type: "ReLU"
  bottom: "conv1_2"
  top: "conv1_2"
}
layer {
  name: "pool1"
  type: "Pooling"
  bottom: "conv1_2"
  top: "pool1"
  pooling_param {
    pool: MAX
    kernel_size: 2
    stride: 2
  }
}
layer {
  name: "conv2_1"
  type: "Convolution"
  bottom: "pool1"
  top: "conv2_1"
  param {
    lr_mult: 0.1
  }
  param {
    lr_mult: 0.2
  }
  convolution_param {
    num_output: 128
    pad: 1
    kernel_size: 3
  }
}
layer {
  name: "relu2_1"
  type: "ReLU"
  bottom: "conv2_1"
  top: "conv2_1"
}
layer {
  name: "conv2_2"
  type: "Convolution"
  bottom: "conv2_1"
  top: "conv2_2"
  param {
    lr_mult: 0.1
  }
  param {
    lr_mult: 0.2
  }
  convolution_param {
    num_output: 128
    pad: 1
    kernel_size: 3
  }
}
layer {
  name: "relu2_2"
  type: "ReLU"
  bottom: "conv2_2"
  top: "conv2_2"
}
layer {
  name: "pool2"
  type: "Pooling"
  bottom: "conv2_2"
  top: "pool2"
  pooling_param {
    pool: MAX
    kernel_size: 2
    stride: 2
  }
}
layer {
  name: "conv3_1"
  type: "Convolution"
  bottom: "pool2"
  top: "conv3_1"
  param {
    lr_mult: 0.1
  }
  param {
    lr_mult: 0.2
  }
  convolution_param {
    num_output: 256
    pad: 1
    kernel_size: 3
  }
}
layer {
  name: "relu3_1"
  type: "ReLU"
  bottom: "conv3_1"
  top: "conv3_1"
}
layer {
  name: "conv3_2"
  type: "Convolution"
  bottom: "conv3_1"
  top: "conv3_2"
  param {
    lr_mult: 0.1
  }
  param {
    lr_mult: 0.2
  }
  convolution_param {
    num_output: 256
    pad: 1
    kernel_size: 3
  }
}
layer {
  name: "relu3_2"
  type: "ReLU"
  bottom: "conv3_2"
  top: "conv3_2"
}
layer {
  name: "conv3_3"
  type: "Convolution"
  bottom: "conv3_2"
  top: "conv3_3"
  param {
    lr_mult: 0.1
  }
  param {
    lr_mult: 0.2
  }
  convolution_param {
    num_output: 256
    pad: 1
    kernel_size: 3
  }
}
layer {
  name: "relu3_3"
  type: "ReLU"
  bottom: "conv3_3"
  top: "conv3_3"
}
layer {
  name: "pool3"
  type: "Pooling"
  bottom: "conv3_3"
  top: "pool3"
  pooling_param {
    pool: MAX
    kernel_size: 2
    stride: 2
  }
}
layer {
  name: "conv4_1"
  type: "Convolution"
  bottom: "pool3"
  top: "conv4_1"
  param {
    lr_mult: 0.1
  }
  param {
    lr_mult: 0.2
  }
  convolution_param {
    num_output: 512
    pad: 1
    kernel_size: 3
  }
}
layer {
  name: "relu4_1"
  type: "ReLU"
  bottom: "conv4_1"
  top: "conv4_1"
}
layer {
  name: "conv4_2"
  type: "Convolution"
  bottom: "conv4_1"
  top: "conv4_2"
  param {
    lr_mult: 0.1
  }
  param {
    lr_mult: 0.2
  }
  convolution_param {
    num_output: 512
    pad: 1
    kernel_size: 3
  }
}
layer {
  name: "relu4_2"
  type: "ReLU"
  bottom: "conv4_2"
  top: "conv4_2"
}
layer {
  name: "conv4_3"
  type: "Convolution"
  bottom: "conv4_2"
  top: "conv4_3"
  param {
    lr_mult: 0.1
  }
  param {
    lr_mult: 0.2
  }
  convolution_param {
    num_output: 512
    pad: 1
    kernel_size: 3
  }
}
layer {
  name: "relu4_3"
  type: "ReLU"
  bottom: "conv4_3"
  top: "conv4_3"
}
layer {
  name: "pool4"
  type: "Pooling"
  bottom: "conv4_3"
  top: "pool4"
  pooling_param {
    pool: MAX
    kernel_size: 2
    stride: 2
  }
}
layer {
  name: "conv5_1"
  type: "Convolution"
  bottom: "pool4"
  top: "conv5_1"
  param {
    lr_mult: 1
    decay_mult: 1
  }
  param {
    lr_mult: 2
    decay_mult: 0
  }
  convolution_param {
    num_output: 512
    pad: 1
    kernel_size: 3
  }
}
layer {
  name: "relu5_1"
  type: "ReLU"
  bottom: "conv5_1"
  top: "conv5_1"
}
layer {
  name: "conv5_2"
  type: "Convolution"
  bottom: "conv5_1"
  top: "conv5_2"
  param {
    lr_mult: 1
    decay_mult: 1
  }
  param {
    lr_mult: 2
    decay_mult: 0
  }
  convolution_param {
    num_output: 512
    pad: 1
    kernel_size: 3
  }
}
layer {
  name: "relu5_2"
  type: "ReLU"
  bottom: "conv5_2"
  top: "conv5_2"
}
layer {
  name: "conv5_3"
  type: "Convolution"
  bottom: "conv5_2"
  top: "conv5_3"
  param {
    lr_mult: 1
    decay_mult: 1
  }
  param {
    lr_mult: 2
    decay_mult: 0
  }
  convolution_param {
    num_output: 512
    pad: 1
    kernel_size: 3
  }
}
layer {
  name: "relu5_3"
  type: "ReLU"
  bottom: "conv5_3"
  top: "conv5_3"
}
layer {
  name: "upsample5_3"
  type: "Deconvolution"
  bottom: "conv5_3"
  top: "upsample5_3"
  param {
    lr_mult: 0
    decay_mult: 0
  }
  param {
    lr_mult: 0
    decay_mult: 0
  }
  convolution_param {
    num_output: 512
    pad: 1
    kernel_size: 3
    group: 512
    stride: 2
    weight_filler {
      type: "bilinear"
    }
  }
}
layer {
  name: "rpn_cls_score"
  type: "Convolution"
  bottom: "upsample5_3"
  top: "rpn_cls_score"
  param {
    lr_mult: 1
  }
  param {
    lr_mult: 2
  }
  convolution_param {
    num_output: 108
    pad: 0
    kernel_size: 1
    stride: 1
    weight_filler {
      type: "gaussian"
      std: 0.01
    }
    bias_filler {
      type: "constant"
      value: 0
    }
  }
}
layer {
  name: "rpn_cls_score_reshape"
  type: "Reshape"
  bottom: "rpn_cls_score"
  top: "rpn_cls_score_reshape"
  reshape_param {
    shape {
      dim: 0
      dim: 2
      dim: -1
      dim: 0
    }
  }
}
layer {
  name: "rpn_bbox_pred"
  type: "Convolution"
  bottom: "upsample5_3"
  top: "rpn_bbox_pred"
  param {
    lr_mult: 0
  }
  param {
    lr_mult: 0
  }
  convolution_param {
    num_output: 270
    pad: 0
    kernel_size: 1
    stride: 1
    weight_filler {
      type: "gaussian"
      std: 0.01
    }
    bias_filler {
      type: "constant"
      value: 0
    }
  }
}
layer {
  name: "rpn-data"
  type: "Python"
  bottom: "rpn_cls_score"
  bottom: "gt_boxes"
  bottom: "im_info"
  bottom: "data"
  top: "rpn_labels"
  top: "rpn_bbox_targets"
  top: "rpn_bbox_inside_weights"
  top: "rpn_bbox_outside_weights"
  python_param {
    module: "rotation.anchor_target_layer"
    layer: "AnchorTargetLayer"
    param_str: "\'feat_stride\': 8"
  }
}
layer {
  name: "rpn_loss_cls"
  type: "SoftmaxWithLoss"
  bottom: "rpn_cls_score_reshape"
  bottom: "rpn_labels"
  top: "rpn_cls_loss"
  loss_weight: 1
  propagate_down: true
  propagate_down: false
  loss_param {
    ignore_label: -1
    normalize: true
  }
}
layer {
  name: "rpn_loss_bbox"
  type: "SmoothL1Loss"
  bottom: "rpn_bbox_pred"
  bottom: "rpn_bbox_targets"
  bottom: "rpn_bbox_inside_weights"
  bottom: "rpn_bbox_outside_weights"
  top: "rpn_loss_bbox"
  loss_weight: 0
  smooth_l1_loss_param {
    sigma: 3
  }
}
I0102 21:27:14.539690  3334 layer_factory.hpp:77] Creating layer input-data
I0102 21:27:14.565620  3334 net.cpp:106] Creating Layer input-data
I0102 21:27:14.565644  3334 net.cpp:411] input-data -> data
I0102 21:27:14.565657  3334 net.cpp:411] input-data -> im_info
I0102 21:27:14.565667  3334 net.cpp:411] input-data -> gt_boxes
…
           'USE_PREFETCH': False},
 'USE_GPU_NMS': True}
MSRA_TRAIN
L_ICDAR2003_TRAIN: 250
total 250
the text instance of total:  1156
250 roidb entries
Output will be saved to `.`
Filtered 4 roidb entries: 250 -> 246
Computing bounding-box regression targets...
bbox target means:
[[ 0.  0.  0.  0.  0.]
 [ 0.  0.  0.  0.  0.]]
[ 0.  0.  0.  0.  0.]
bbox target stdevs:
[[ 0.1  0.1  0.2  0.2  1. ]
 [ 0.1  0.1  0.2  0.2  1. ]]
[ 0.1  0.1  0.2  0.2  1. ]
Normalizing targets
done
Setup the RoIDataLayer
RoiDataLayI0102 21:27:14.567225  3334 net.cpp:150] Setting up input-data
I0102 21:27:14.567243  3334 net.cpp:157] Top shape: 1 3 500 500 (750000)
I0102 21:27:14.567250  3334 net.cpp:157] Top shape: 1 3 (3)
I0102 21:27:14.567255  3334 net.cpp:157] Top shape: 1 5 (5)
I0102 21:27:14.567260  3334 net.cpp:165] Memory required for data: 3000032
I0102 21:27:14.567266  3334 layer_factory.hpp:77] Creating layer data_input-data_0_split
I0102 21:27:14.567276  3334 net.cpp:106] Creating Layer data_input-data_0_split
I0102 21:27:14.567282  3334 net.cpp:454] data_input-data_0_split <- data
I0102 21:27:14.567291  3334 net.cpp:411] data_input-data_0_split -> data_input-data_0_split_0
I0102 21:27:14.567301  3334 net.cpp:411] data_input-data_0_split -> data_input-data_0_split_1
I0102 21:27:14.567338  3334 net.cpp:150] Setting up data_input-data_0_split
I0102 21:27:14.567346  3334 net.cpp:157] Top shape: 1 3 500 500 (750000)
I0102 21:27:14.567353  3334 net.cpp:157] Top shape: 1 3 500 500 (750000)
I0102 21:27:14.567358  3334 net.cpp:165] Memory required for data: 9000032
I0102 21:27:14.567361  3334 layer_factory.hpp:77] Creating layer conv1_1
I0102 21:27:14.567380  3334 net.cpp:106] Creating Layer conv1_1
I0102 21:27:14.567389  3334 net.cpp:454] conv1_1 <- data_input-data_0_split_0
I0102 21:27:14.567396  3334 net.cpp:411] conv1_1 -> conv1_1
I0102 21:27:14.569649  3334 net.cpp:150] Setting up conv1_1
I0102 21:27:14.569675  3334 net.cpp:157] Top shape: 1 64 500 500 (16000000)
I0102 21:27:14.569680  3334 net.cpp:165] Memory required for data: 73000032
I0102 21:27:14.569697  3334 layer_factory.hpp:77] Creating layer relu1_1
I0102 21:27:14.569708  3334 net.cpp:106] Creating Layer relu1_1
I0102 21:27:14.569713  3334 net.cpp:454] relu1_1 <- conv1_1
I0102 21:27:14.569721  3334 net.cpp:397] relu1_1 -> conv1_1 (in-place)
I0102 21:27:14.569731  3334 net.cpp:150] Setting up relu1_1
I0102 21:27:14.569737  3334 net.cpp:157] Top shape: 1 64 500 500 (16000000)
I0102 21:27:14.569746  3334 net.cpp:165] Memory required for data: 137000032
I0102 21:27:14.569751  3334 layer_factory.hpp:77] Creating layer conv1_2
I0102 21:27:14.569763  3334 net.cpp:106] Creating Layer conv1_2
I0102 21:27:14.569770  3334 net.cpp:454] conv1_2 <- conv1_1
I0102 21:27:14.569778  3334 net.cpp:411] conv1_2 -> conv1_2
I0102 21:27:14.571131  3334 net.cpp:150] Setting up conv1_2
I0102 21:27:14.571152  3334 net.cpp:157] Top shape: 1 64 500 500 (16000000)
I0102 21:27:14.571157  3334 net.cpp:165] Memory required for data: 201000032
I0102 21:27:14.571169  3334 layer_factory.hpp:77] Creating layer relu1_2
I0102 21:27:14.571177  3334 net.cpp:106] Creating Layer relu1_2
I0102 21:27:14.571183  3334 net.cpp:454] relu1_2 <- conv1_2
I0102 21:27:14.571192  3334 net.cpp:397] relu1_2 -> conv1_2 (in-place)
I0102 21:27:14.571202  3334 net.cpp:150] Setting up relu1_2
I0102 21:27:14.571208  3334 net.cpp:157] Top shape: 1 64 500 500 (16000000)
I0102 21:27:14.571213  3334 net.cpp:165] Memory required for data: 265000032
I0102 21:27:14.571216  3334 layer_factory.hpp:77] Creating layer pool1
I0102 21:27:14.571224  3334 net.cpp:106] Creating Layer pool1
I0102 21:27:14.571228  3334 net.cpp:454] pool1 <- conv1_2
I0102 21:27:14.571235  3334 net.cpp:411] pool1 -> pool1
I0102 21:27:14.571280  3334 net.cpp:150] Setting up pool1
I0102 21:27:14.571290  3334 net.cpp:157] Top shape: 1 64 250 250 (4000000)
I0102 21:27:14.571295  3334 net.cpp:165] Memory required for data: 281000032
I0102 21:27:14.571298  3334 layer_factory.hpp:77] Creating layer conv2_1
I0102 21:27:14.571310  3334 net.cpp:106] Creating Layer conv2_1
I0102 21:27:14.571314  3334 net.cpp:454] conv2_1 <- pool1
I0102 21:27:14.571324  3334 net.cpp:411] conv2_1 -> conv2_1
I0102 21:27:14.572563  3334 net.cpp:150] Setting up conv2_1
I0102 21:27:14.572582  3334 net.cpp:157] Top shape: 1 128 250 250 (8000000)
I0102 21:27:14.572587  3334 net.cpp:165] Memory required for data: 313000032
I0102 21:27:14.572597  3334 layer_factory.hpp:77] Creating layer relu2_1
I0102 21:27:14.572609  3334 net.cpp:106] Creating Layer relu2_1
I0102 21:27:14.572615  3334 net.cpp:454] relu2_1 <- conv2_1
I0102 21:27:14.572623  3334 net.cpp:397] relu2_1 -> conv2_1 (in-place)
I0102 21:27:14.572631  3334 net.cpp:150] Setting up relu2_1
I0102 21:27:14.572638  3334 net.cpp:157] Top shape: 1 128 250 250 (8000000)
I0102 21:27:14.572641  3334 net.cpp:165] Memory required for data: 345000032
I0102 21:27:14.572645  3334 layer_factory.hpp:77] Creating layer conv2_2
I0102 21:27:14.572656  3334 net.cpp:106] Creating Layer conv2_2
I0102 21:27:14.572661  3334 net.cpp:454] conv2_2 <- conv2_1
I0102 21:27:14.572669  3334 net.cpp:411] conv2_2 -> conv2_2
I0102 21:27:14.573006  3334 net.cpp:150] Setting up conv2_2
I0102 21:27:14.573019  3334 net.cpp:157] Top shape: 1 128 250 250 (8000000)
I0102 21:27:14.573022  3334 net.cpp:165] Memory required for data: 377000032
I0102 21:27:14.573030  3334 layer_factory.hpp:77] Creating layer relu2_2
I0102 21:27:14.573040  3334 net.cpp:106] Creating Layer relu2_2
I0102 21:27:14.573045  3334 net.cpp:454] relu2_2 <- conv2_2
I0102 21:27:14.573051  3334 net.cpp:397] relu2_2 -> conv2_2 (in-place)
I0102 21:27:14.573058  3334 net.cpp:150] Setting up relu2_2
I0102 21:27:14.573065  3334 net.cpp:157] Top shape: 1 128 250 250 (8000000)
I0102 21:27:14.573068  3334 net.cpp:165] Memory required for data: 409000032
I0102 21:27:14.573073  3334 layer_factory.hpp:77] Creating layer pool2
I0102 21:27:14.573081  3334 net.cpp:106] Creating Layer pool2
I0102 21:27:14.573086  3334 net.cpp:454] pool2 <- conv2_2
I0102 21:27:14.573093  3334 net.cpp:411] pool2 -> pool2
I0102 21:27:14.573132  3334 net.cpp:150] Setting up pool2
I0102 21:27:14.573143  3334 net.cpp:157] Top shape: 1 128 125 125 (2000000)
I0102 21:27:14.573148  3334 net.cpp:165] Memory required for data: 417000032
I0102 21:27:14.573153  3334 layer_factory.hpp:77] Creating layer conv3_1
I0102 21:27:14.573160  3334 net.cpp:106] Creating Layer conv3_1
I0102 21:27:14.573166  3334 net.cpp:454] conv3_1 <- pool2
I0102 21:27:14.573174  3334 net.cpp:411] conv3_1 -> conv3_1
I0102 21:27:14.574525  3334 net.cpp:150] Setting up conv3_1
I0102 21:27:14.574543  3334 net.cpp:157] Top shape: 1 256 125 125 (4000000)
I0102 21:27:14.574548  3334 net.cpp:165] Memory required for data: 433000032
I0102 21:27:14.574564  3334 layer_factory.hpp:77] Creating layer relu3_1
I0102 21:27:14.574573  3334 net.cpp:106] Creating Layer relu3_1
I0102 21:27:14.574579  3334 net.cpp:454] relu3_1 <- conv3_1
I0102 21:27:14.574585  3334 net.cpp:397] relu3_1 -> conv3_1 (in-place)
I0102 21:27:14.574594  3334 net.cpp:150] Setting up relu3_1
I0102 21:27:14.574601  3334 net.cpp:157] Top shape: 1 256 125 125 (4000000)
I0102 21:27:14.574605  3334 net.cpp:165] Memory required for data: 449000032
I0102 21:27:14.574609  3334 layer_factory.hpp:77] Creating layer conv3_2
I0102 21:27:14.574620  3334 net.cpp:106] Creating Layer conv3_2
I0102 21:27:14.574625  3334 net.cpp:454] conv3_2 <- conv3_1
I0102 21:27:14.574632  3334 net.cpp:411] conv3_2 -> conv3_2
I0102 21:27:14.576251  3334 net.cpp:150] Setting up conv3_2
I0102 21:27:14.576272  3334 net.cpp:157] Top shape: 1 256 125 125 (4000000)
I0102 21:27:14.576277  3334 net.cpp:165] Memory required for data: 465000032
I0102 21:27:14.576285  3334 layer_factory.hpp:77] Creating layer relu3_2
I0102 21:27:14.576294  3334 net.cpp:106] Creating Layer relu3_2
I0102 21:27:14.576299  3334 net.cpp:454] relu3_2 <- conv3_2
I0102 21:27:14.576306  3334 net.cpp:397] relu3_2 -> conv3_2 (in-place)
I0102 21:27:14.576315  3334 net.cpp:150] Setting up relu3_2
I0102 21:27:14.576321  3334 net.cpp:157] Top shape: 1 256 125 125 (4000000)
I0102 21:27:14.576325  3334 net.cpp:165] Memory required for data: 481000032
I0102 21:27:14.576329  3334 layer_factory.hpp:77] Creating layer conv3_3
I0102 21:27:14.576344  3334 net.cpp:106] Creating Layer conv3_3
I0102 21:27:14.576351  3334 net.cpp:454] conv3_3 <- conv3_2
I0102 21:27:14.576359  3334 net.cpp:411] conv3_3 -> conv3_3
I0102 21:27:14.578019  3334 net.cpp:150] Setting up conv3_3
I0102 21:27:14.578039  3334 net.cpp:157] Top shape: 1 256 125 125 (4000000)
I0102 21:27:14.578044  3334 net.cpp:165] Memory required for data: 497000032
I0102 21:27:14.578054  3334 layer_factory.hpp:77] Creating layer relu3_3
I0102 21:27:14.578063  3334 net.cpp:106] Creating Layer relu3_3
I0102 21:27:14.578068  3334 net.cpp:454] relu3_3 <- conv3_3
I0102 21:27:14.578079  3334 net.cpp:397] relu3_3 -> conv3_3 (in-place)
I0102 21:27:14.578088  3334 net.cpp:150] Setting up relu3_3
I0102 21:27:14.578095  3334 net.cpp:157] Top shape: 1 256 125 125 (4000000)
I0102 21:27:14.578099  3334 net.cpp:165] Memory required for data: 513000032
I0102 21:27:14.578104  3334 layer_factory.hpp:77] Creating layer pool3
I0102 21:27:14.578112  3334 net.cpp:106] Creating Layer pool3
I0102 21:27:14.578119  3334 net.cpp:454] pool3 <- conv3_3
I0102 21:27:14.578125  3334 net.cpp:411] pool3 -> pool3
I0102 21:27:14.578166  3334 net.cpp:150] Setting up pool3
I0102 21:27:14.578177  3334 net.cpp:157] Top shape: 1 256 63 63 (1016064)
I0102 21:27:14.578181  3334 net.cpp:165] Memory required for data: 517064288
I0102 21:27:14.578186  3334 layer_factory.hpp:77] Creating layer conv4_1
I0102 21:27:14.578196  3334 net.cpp:106] Creating Layer conv4_1
I0102 21:27:14.578200  3334 net.cpp:454] conv4_1 <- pool3
I0102 21:27:14.578209  3334 net.cpp:411] conv4_1 -> conv4_1
I0102 21:27:14.582309  3334 net.cpp:150] Setting up conv4_1
I0102 21:27:14.582340  3334 net.cpp:157] Top shape: 1 512 63 63 (2032128)
I0102 21:27:14.582346  3334 net.cpp:165] Memory required for data: 525192800
I0102 21:27:14.582358  3334 layer_factory.hpp:77] Creating layer relu4_1
I0102 21:27:14.582374  3334 net.cpp:106] Creating Layer relu4_1
I0102 21:27:14.582381  3334 net.cpp:454] relu4_1 <- conv4_1
I0102 21:27:14.582391  3334 net.cpp:397] relu4_1 -> conv4_1 (in-place)
I0102 21:27:14.582404  3334 net.cpp:150] Setting up relu4_1
I0102 21:27:14.582410  3334 net.cpp:157] Top shape: 1 512 63 63 (2032128)
I0102 21:27:14.582414  3334 net.cpp:165] Memory required for data: 533321312
I0102 21:27:14.582419  3334 layer_factory.hpp:77] Creating layer conv4_2
I0102 21:27:14.582432  3334 net.cpp:106] Creating Layer conv4_2
I0102 21:27:14.582438  3334 net.cpp:454] conv4_2 <- conv4_1
I0102 21:27:14.582527  3334 net.cpp:411] conv4_2 -> conv4_2
I0102 21:27:14.587963  3334 net.cpp:150] Setting up conv4_2
I0102 21:27:14.588006  3334 net.cpp:157] Top shape: 1 512 63 63 (2032128)
I0102 21:27:14.588011  3334 net.cpp:165] Memory required for data: 541449824
I0102 21:27:14.588033  3334 layer_factory.hpp:77] Creating layer relu4_2
I0102 21:27:14.588047  3334 net.cpp:106] Creating Layer relu4_2
I0102 21:27:14.588053  3334 net.cpp:454] relu4_2 <- conv4_2
I0102 21:27:14.588064  3334 net.cpp:397] relu4_2 -> conv4_2 (in-place)
I0102 21:27:14.588076  3334 net.cpp:150] Setting up relu4_2
I0102 21:27:14.588083  3334 net.cpp:157] Top shape: 1 512 63 63 (2032128)
I0102 21:27:14.588086  3334 net.cpp:165] Memory required for data: 549578336
I0102 21:27:14.588091  3334 layer_factory.hpp:77] Creating layer conv4_3
I0102 21:27:14.588101  3334 net.cpp:106] Creating Layer conv4_3
I0102 21:27:14.588106  3334 net.cpp:454] conv4_3 <- conv4_2
I0102 21:27:14.588114  3334 net.cpp:411] conv4_3 -> conv4_3
I0102 21:27:14.593519  3334 net.cpp:150] Setting up conv4_3
I0102 21:27:14.593556  3334 net.cpp:157] Top shape: 1 512 63 63 (2032128)
I0102 21:27:14.593561  3334 net.cpp:165] Memory required for data: 557706848
I0102 21:27:14.593574  3334 layer_factory.hpp:77] Creating layer relu4_3
I0102 21:27:14.593586  3334 net.cpp:106] Creating Layer relu4_3
I0102 21:27:14.593592  3334 net.cpp:454] relu4_3 <- conv4_3
I0102 21:27:14.593603  3334 net.cpp:397] relu4_3 -> conv4_3 (in-place)
I0102 21:27:14.593616  3334 net.cpp:150] Setting up relu4_3
I0102 21:27:14.593621  3334 net.cpp:157] Top shape: 1 512 63 63 (2032128)
I0102 21:27:14.593626  3334 net.cpp:165] Memory required for data: 565835360
I0102 21:27:14.593629  3334 layer_factory.hpp:77] Creating layer pool4
I0102 21:27:14.593637  3334 net.cpp:106] Creating Layer pool4
I0102 21:27:14.593642  3334 net.cpp:454] pool4 <- conv4_3
I0102 21:27:14.593650  3334 net.cpp:411] pool4 -> pool4
I0102 21:27:14.593689  3334 net.cpp:150] Setting up pool4
I0102 21:27:14.593703  3334 net.cpp:157] Top shape: 1 512 32 32 (524288)
I0102 21:27:14.593708  3334 net.cpp:165] Memory required for data: 567932512
I0102 21:27:14.593711  3334 layer_factory.hpp:77] Creating layer conv5_1
I0102 21:27:14.593721  3334 net.cpp:106] Creating Layer conv5_1
I0102 21:27:14.593726  3334 net.cpp:454] conv5_1 <- pool4
I0102 21:27:14.593741  3334 net.cpp:411] conv5_1 -> conv5_1
I0102 21:27:14.599045  3334 net.cpp:150] Setting up conv5_1
I0102 21:27:14.599084  3334 net.cpp:157] Top shape: 1 512 32 32 (524288)
I0102 21:27:14.599089  3334 net.cpp:165] Memory required for data: 570029664
I0102 21:27:14.599102  3334 layer_factory.hpp:77] Creating layer relu5_1
I0102 21:27:14.599114  3334 net.cpp:106] Creating Layer relu5_1
I0102 21:27:14.599120  3334 net.cpp:454] relu5_1 <- conv5_1
I0102 21:27:14.599131  3334 net.cpp:397] relu5_1 -> conv5_1 (in-place)
I0102 21:27:14.599143  3334 net.cpp:150] Setting up relu5_1
I0102 21:27:14.599149  3334 net.cpp:157] Top shape: 1 512 32 32 (524288)
I0102 21:27:14.599153  3334 net.cpp:165] Memory required for data: 572126816
I0102 21:27:14.599158  3334 layer_factory.hpp:77] Creating layer conv5_2
I0102 21:27:14.599169  3334 net.cpp:106] Creating Layer conv5_2
I0102 21:27:14.599174  3334 net.cpp:454] conv5_2 <- conv5_1
I0102 21:27:14.599181  3334 net.cpp:411] conv5_2 -> conv5_2
I0102 21:27:14.604516  3334 net.cpp:150] Setting up conv5_2
I0102 21:27:14.604557  3334 net.cpp:157] Top shape: 1 512 32 32 (524288)
I0102 21:27:14.604562  3334 net.cpp:165] Memory required for data: 574223968
I0102 21:27:14.604573  3334 layer_factory.hpp:77] Creating layer relu5_2
I0102 21:27:14.604586  3334 net.cpp:106] Creating Layer relu5_2
I0102 21:27:14.604593  3334 net.cpp:454] relu5_2 <- conv5_2
I0102 21:27:14.604604  3334 net.cpp:397] relu5_2 -> conv5_2 (in-place)
I0102 21:27:14.604616  3334 net.cpp:150] Setting up relu5_2
I0102 21:27:14.604622  3334 net.cpp:157] Top shape: 1 512 32 32 (524288)
I0102 21:27:14.604625  3334 net.cpp:165] Memory required for data: 576321120
I0102 21:27:14.604630  3334 layer_factory.hpp:77] Creating layer conv5_3
I0102 21:27:14.604640  3334 net.cpp:106] Creating Layer conv5_3
I0102 21:27:14.604645  3334 net.cpp:454] conv5_3 <- conv5_2
I0102 21:27:14.604653  3334 net.cpp:411] conv5_3 -> conv5_3
I0102 21:27:14.609935  3334 net.cpp:150] Setting up conv5_3
I0102 21:27:14.609972  3334 net.cpp:157] Top shape: 1 512 32 32 (524288)
I0102 21:27:14.609977  3334 net.cpp:165] Memory required for data: 578418272
I0102 21:27:14.609988  3334 layer_factory.hpp:77] Creating layer relu5_3
I0102 21:27:14.609999  3334 net.cpp:106] Creating Layer relu5_3
I0102 21:27:14.610005  3334 net.cpp:454] relu5_3 <- conv5_3
I0102 21:27:14.610015  3334 net.cpp:397] relu5_3 -> conv5_3 (in-place)
I0102 21:27:14.610028  3334 net.cpp:150] Setting up relu5_3
I0102 21:27:14.610033  3334 net.cpp:157] Top shape: 1 512 32 32 (524288)
I0102 21:27:14.610036  3334 net.cpp:165] Memory required for data: 580515424
I0102 21:27:14.610040  3334 layer_factory.hpp:77] Creating layer upsample5_3
I0102 21:27:14.610059  3334 net.cpp:106] Creating Layer upsample5_3
I0102 21:27:14.610067  3334 net.cpp:454] upsample5_3 <- conv5_3
I0102 21:27:14.610075  3334 net.cpp:411] upsample5_3 -> upsample5_3
I0102 21:27:14.610504  3334 net.cpp:150] Setting up upsample5_3
I0102 21:27:14.610515  3334 net.cpp:157] Top shape: 1 512 63 63 (2032128)
I0102 21:27:14.610519  3334 net.cpp:165] Memory required for data: 588643936
I0102 21:27:14.610527  3334 layer_factory.hpp:77] Creating layer upsample5_3_upsample5_3_0_split
I0102 21:27:14.610535  3334 net.cpp:106] Creating Layer upsample5_3_upsample5_3_0_split
I0102 21:27:14.610540  3334 net.cpp:454] upsample5_3_upsample5_3_0_split <- upsample5_3
I0102 21:27:14.610546  3334 net.cpp:411] upsample5_3_upsample5_3_0_split -> upsample5_3_upsample5_3_0_split_0
I0102 21:27:14.610554  3334 net.cpp:411] upsample5_3_upsample5_3_0_split -> upsample5_3_upsample5_3_0_split_1
I0102 21:27:14.610590  3334 net.cpp:150] Setting up upsample5_3_upsample5_3_0_split
I0102 21:27:14.610599  3334 net.cpp:157] Top shape: 1 512 63 63 (2032128)
I0102 21:27:14.610605  3334 net.cpp:157] Top shape: 1 512 63 63 (2032128)
I0102 21:27:14.610608  3334 net.cpp:165] Memory required for data: 604900960
I0102 21:27:14.610612  3334 layer_factory.hpp:77] Creating layer rpn_cls_score
I0102 21:27:14.610623  3334 net.cpp:106] Creating Layer rpn_cls_score
I0102 21:27:14.610628  3334 net.cpp:454] rpn_cls_score <- upsample5_3_upsample5_3_0_split_0
I0102 21:27:14.610637  3334 net.cpp:411] rpn_cls_score -> rpn_cls_score
I0102 21:27:14.611518  3334 net.cpp:150] Setting up rpn_cls_score
I0102 21:27:14.611531  3334 net.cpp:157] Top shape: 1 108 63 63 (428652)
I0102 21:27:14.611536  3334 net.cpp:165] Memory required for data: 606615568
I0102 21:27:14.611542  3334 layer_factory.hpp:77] Creating layer rpn_cls_score_rpn_cls_score_0_split
I0102 21:27:14.611549  3334 net.cpp:106] Creating Layer rpn_cls_score_rpn_cls_score_0_split
I0102 21:27:14.611554  3334 net.cpp:454] rpn_cls_score_rpn_cls_score_0_split <- rpn_cls_score
I0102 21:27:14.611560  3334 net.cpp:411] rpn_cls_score_rpn_cls_score_0_split -> rpn_cls_score_rpn_cls_score_0_split_0
I0102 21:27:14.611568  3334 net.cpp:411] rpn_cls_score_rpn_cls_score_0_split -> rpn_cls_score_rpn_cls_score_0_split_1
I0102 21:27:14.611603  3334 net.cpp:150] Setting up rpn_cls_score_rpn_cls_score_0_split
I0102 21:27:14.611613  3334 net.cpp:157] Top shape: 1 108 63 63 (428652)
I0102 21:27:14.611618  3334 net.cpp:157] Top shape: 1 108 63 63 (428652)
I0102 21:27:14.611621  3334 net.cpp:165] Memory required for data: 610044784
I0102 21:27:14.611625  3334 layer_factory.hpp:77] Creating layer rpn_cls_score_reshape
I0102 21:27:14.611636  3334 net.cpp:106] Creating Layer rpn_cls_score_reshape
I0102 21:27:14.611641  3334 net.cpp:454] rpn_cls_score_reshape <- rpn_cls_score_rpn_cls_score_0_split_0
I0102 21:27:14.611647  3334 net.cpp:411] rpn_cls_score_reshape -> rpn_cls_score_reshape
I0102 21:27:14.611676  3334 net.cpp:150] Setting up rpn_cls_score_reshape
I0102 21:27:14.611685  3334 net.cpp:157] Top shape: 1 2 3402 63 (428652)
I0102 21:27:14.611688  3334 net.cpp:165] Memory required for data: 611759392
I0102 21:27:14.611692  3334 layer_factory.hpp:77] Creating layer rpn_bbox_pred
I0102 21:27:14.611702  3334 net.cpp:106] Creating Layer rpn_bbox_pred
I0102 21:27:14.611707  3334 net.cpp:454] rpn_bbox_pred <- upsample5_3_upsample5_3_0_split_1
I0102 21:27:14.611716  3334 net.cpp:411] rpn_bbox_pred -> rpn_bbox_pred
I0102 21:27:14.614636  3334 net.cpp:150] Setting up rpn_bbox_pred
I0102 21:27:14.614660  3334 net.cpp:157] Top shape: 1 270 63 63 (1071630)
I0102 21:27:14.614665  3334 net.cpp:165] Memory required for data: 616045912
I0102 21:27:14.614675  3334 layer_factory.hpp:77] Creating layer rpn-data
I0102 21:27:14.615986  3334 net.cpp:106] Creating Layer rpn-data
I0102 21:27:14.616000  3334 net.cpp:454] rpn-data <- rpn_cls_score_rpn_cls_score_0_split_1
I0102 21:27:14.616010  3334 net.cpp:454] rpn-data <- gt_boxes
I0102 21:27:14.616016  3334 net.cpp:454] rpn-data <- im_info
I0102 21:27:14.616021  3334 net.cpp:454] rpn-data <- data_input-data_0_split_1
I0102 21:27:14.616030  3334 net.cpp:411] rpn-data -> rpn_labels
I0102 21:27:14.616041  3334 net.cpp:411] rpn-data -> rpn_bbox_targets
I0102 21:27:14.616050  3334 net.cpp:411] rpn-data -> rpn_bbox_inside_weights
I0102 21:27:14.616062  3334 net.cpp:411] rpn-data -> rpn_bbox_outside_weights
I0102 21:27:14.618427  3334 net.cpp:150] Setting up rpn-data
I0102 21:27:14.618451  3334 net.cpp:157] Top shape: 1 1 3402 63 (214326)
I0102 21:27:14.618458  3334 net.cpp:157] Top shape: 1 270 63 63 (1071630)
I0102 21:27:14.618464  3334 net.cpp:157] Top shape: 1 270 63 63 (1071630)
I0102 21:27:14.618469  3334 net.cpp:157] Top shape: 1 270 63 63 (1071630)
I0102 21:27:14.618474  3334 net.cpp:165] Memory required for data: 629762776
I0102 21:27:14.618479  3334 layer_factory.hpp:77] Creating layer rpn_loss_cls
I0102 21:27:14.618490  3334 net.cpp:106] Creating Layer rpn_loss_cls
I0102 21:27:14.618496  3334 net.cpp:454] rpn_loss_cls <- rpn_cls_score_reshape
I0102 21:27:14.618505  3334 net.cpp:454] rpn_loss_cls <- rpn_labels
I0102 21:27:14.618511  3334 net.cpp:411] rpn_loss_cls -> rpn_cls_loss
…
