…
snapshot: 0
snapshot_prefix: "vgg16_faster_rcnn"
average_loss: 100
iter_size: 2
I1208 22:08:41.057879 32458 solver.cpp:81] Creating training net from train_net file: models/rrpn/VGG16/faster_rcnn_end2end/train.prototxt
I1208 22:08:41.070336 32458 net.cpp:49] Initializing net from parameters: 
name: "VGG_ILSVRC_16_layers"
state {
  phase: TRAIN
}
layer {
  name: "input-data"
  type: "Python"
  top: "data"
  top: "im_info"
  top: "gt_boxes"
  python_param {
    module: "rotation.rlayer"
    layer: "RoIDataLayer"
    param_str: "\'num_classes\': 2"
  }
}
layer {
  name: "conv1_1"
  type: "Convolution"
  bottom: "data"
  top: "conv1_1"
  param {
    lr_mult: 0
    decay_mult: 0
  }
  param {
    lr_mult: 0
    decay_mult: 0
  }
  convolution_param {
    num_output: 64
    pad: 1
    kernel_size: 3
  }
}
layer {
  name: "relu1_1"
  type: "ReLU"
  bottom: "conv1_1"
  top: "conv1_1"
}
layer {
  name: "conv1_2"
  type: "Convolution"
  bottom: "conv1_1"
  top: "conv1_2"
  param {
    lr_mult: 0
    decay_mult: 0
  }
  param {
    lr_mult: 0
    decay_mult: 0
  }
  convolution_param {
    num_output: 64
    pad: 1
    kernel_size: 3
  }
}
layer {
  name: "relu1_2"
  type: "ReLU"
  bottom: "conv1_2"
  top: "conv1_2"
}
layer {
  name: "pool1"
  type: "Pooling"
  bottom: "conv1_2"
  top: "pool1"
  pooling_param {
    pool: MAX
    kernel_size: 2
    stride: 2
  }
}
layer {
  name: "conv2_1"
  type: "Convolution"
  bottom: "pool1"
  top: "conv2_1"
  param {
    lr_mult: 0
    decay_mult: 0
  }
  param {
    lr_mult: 0
    decay_mult: 0
  }
  convolution_param {
    num_output: 128
    pad: 1
    kernel_size: 3
  }
}
layer {
  name: "relu2_1"
  type: "ReLU"
  bottom: "conv2_1"
  top: "conv2_1"
}
layer {
  name: "conv2_2"
  type: "Convolution"
  bottom: "conv2_1"
  top: "conv2_2"
  param {
    lr_mult: 0
    decay_mult: 0
  }
  param {
    lr_mult: 0
    decay_mult: 0
  }
  convolution_param {
    num_output: 128
    pad: 1
    kernel_size: 3
  }
}
layer {
  name: "relu2_2"
  type: "ReLU"
  bottom: "conv2_2"
  top: "conv2_2"
}
layer {
  name: "pool2"
  type: "Pooling"
  bottom: "conv2_2"
  top: "pool2"
  pooling_param {
    pool: MAX
    kernel_size: 2
    stride: 2
  }
}
layer {
  name: "conv3_1"
  type: "Convolution"
  bottom: "pool2"
  top: "conv3_1"
  param {
    lr_mult: 1
  }
  param {
    lr_mult: 2
  }
  convolution_param {
    num_output: 256
    pad: 1
    kernel_size: 3
  }
}
layer {
  name: "relu3_1"
  type: "ReLU"
  bottom: "conv3_1"
  top: "conv3_1"
}
layer {
  name: "conv3_2"
  type: "Convolution"
  bottom: "conv3_1"
  top: "conv3_2"
  param {
    lr_mult: 1
  }
  param {
    lr_mult: 2
  }
  convolution_param {
    num_output: 256
    pad: 1
    kernel_size: 3
  }
}
layer {
  name: "relu3_2"
  type: "ReLU"
  bottom: "conv3_2"
  top: "conv3_2"
}
layer {
  name: "conv3_3"
  type: "Convolution"
  bottom: "conv3_2"
  top: "conv3_3"
  param {
    lr_mult: 1
  }
  param {
    lr_mult: 2
  }
  convolution_param {
    num_output: 256
    pad: 1
    kernel_size: 3
  }
}
layer {
  name: "relu3_3"
  type: "ReLU"
  bottom: "conv3_3"
  top: "conv3_3"
}
layer {
  name: "pool3"
  type: "Pooling"
  bottom: "conv3_3"
  top: "pool3"
  pooling_param {
    pool: MAX
    kernel_size: 2
    stride: 2
  }
}
layer {
  name: "conv4_1"
  type: "Convolution"
  bottom: "pool3"
  top: "conv4_1"
  param {
    lr_mult: 1
  }
  param {
    lr_mult: 2
  }
  convolution_param {
    num_output: 512
    pad: 1
    kernel_size: 3
  }
}
layer {
  name: "relu4_1"
  type: "ReLU"
  bottom: "conv4_1"
  top: "conv4_1"
}
layer {
  name: "conv4_2"
  type: "Convolution"
  bottom: "conv4_1"
  top: "conv4_2"
  param {
    lr_mult: 1
  }
  param {
    lr_mult: 2
  }
  convolution_param {
    num_output: 512
    pad: 1
    kernel_size: 3
  }
}
layer {
  name: "relu4_2"
  type: "ReLU"
  bottom: "conv4_2"
  top: "conv4_2"
}
layer {
  name: "conv4_3"
  type: "Convolution"
  bottom: "conv4_2"
  top: "conv4_3"
  param {
    lr_mult: 1
  }
  param {
    lr_mult: 2
  }
  convolution_param {
    num_output: 512
    pad: 1
    kernel_size: 3
  }
}
layer {
  name: "relu4_3"
  type: "ReLU"
  bottom: "conv4_3"
  top: "conv4_3"
}
layer {
  name: "pool4"
  type: "Pooling"
  bottom: "conv4_3"
  top: "pool4"
  pooling_param {
    pool: MAX
    kernel_size: 2
    stride: 2
  }
}
layer {
  name: "conv5_1"
  type: "Convolution"
  bottom: "pool4"
  top: "conv5_1"
  param {
    lr_mult: 1
  }
  param {
    lr_mult: 2
  }
  convolution_param {
    num_output: 512
    pad: 1
    kernel_size: 3
  }
}
layer {
  name: "relu5_1"
  type: "ReLU"
  bottom: "conv5_1"
  top: "conv5_1"
}
layer {
  name: "conv5_2"
  type: "Convolution"
  bottom: "conv5_1"
  top: "conv5_2"
  param {
    lr_mult: 1
  }
  param {
    lr_mult: 2
  }
  convolution_param {
    num_output: 512
    pad: 1
    kernel_size: 3
  }
}
layer {
  name: "relu5_2"
  type: "ReLU"
  bottom: "conv5_2"
  top: "conv5_2"
}
layer {
  name: "conv5_3"
  type: "Convolution"
  bottom: "conv5_2"
  top: "conv5_3"
  param {
    lr_mult: 1
  }
  param {
    lr_mult: 2
  }
  convolution_param {
    num_output: 512
    pad: 1
    kernel_size: 3
  }
}
layer {
  name: "relu5_3"
  type: "ReLU"
  bottom: "conv5_3"
  top: "conv5_3"
}
layer {
  name: "rpn_conv/3x3"
  type: "Convolution"
  bottom: "conv5_3"
  top: "rpn/output"
  param {
    lr_mult: 1
  }
  param {
    lr_mult: 2
  }
  convolution_param {
    num_output: 512
    pad: 1
    kernel_size: 3
    stride: 1
    weight_filler {
      type: "gaussian"
      std: 0.01
    }
    bias_filler {
      type: "constant"
      value: 0
    }
  }
}
layer {
  name: "rpn_relu/3x3"
  type: "ReLU"
  bottom: "rpn/output"
  top: "rpn/output"
}
layer {
  name: "rpn_cls_score"
  type: "Convolution"
  bottom: "rpn/output"
  top: "rpn_cls_score"
  param {
    lr_mult: 1
  }
  param {
    lr_mult: 2
  }
  convolution_param {
    num_output: 108
    pad: 0
    kernel_size: 1
    stride: 1
    weight_filler {
      type: "gaussian"
      std: 0.01
    }
    bias_filler {
      type: "constant"
      value: 0
    }
  }
}
layer {
  name: "rpn_bbox_pred"
  type: "Convolution"
  bottom: "rpn/output"
  top: "rpn_bbox_pred"
  param {
    lr_mult: 1
  }
  param {
    lr_mult: 2
  }
  convolution_param {
    num_output: 270
    pad: 0
    kernel_size: 1
    stride: 1
    weight_filler {
      type: "gaussian"
      std: 0.01
    }
    bias_filler {
      type: "constant"
      value: 0
    }
  }
}
layer {
  name: "rpn_cls_score_reshape"
  type: "Reshape"
  bottom: "rpn_cls_score"
  top: "rpn_cls_score_reshape"
  reshape_param {
    shape {
      dim: 0
      dim: 2
      dim: -1
      dim: 0
    }
  }
}
layer {
  name: "rpn-data"
  type: "Python"
  bottom: "rpn_cls_score"
  bottom: "gt_boxes"
  bottom: "im_info"
  bottom: "data"
  top: "rpn_labels"
  top: "rpn_bbox_targets"
  top: "rpn_bbox_inside_weights"
  top: "rpn_bbox_outside_weights"
  python_param {
    module: "rotation.anchor_target_layer"
    layer: "AnchorTargetLayer"
    param_str: "\'feat_stride\': 16"
  }
}
layer {
  name: "rpn_loss_cls"
  type: "SoftmaxWithLoss"
  bottom: "rpn_cls_score_reshape"
  bottom: "rpn_labels"
  top: "rpn_cls_loss"
  loss_weight: 1
  propagate_down: true
  propagate_down: false
  loss_param {
    ignore_label: -1
    normalize: true
  }
}
layer {
  name: "rpn_loss_bbox"
  type: "SmoothL1Loss"
  bottom: "rpn_bbox_pred"
  bottom: "rpn_bbox_targets"
  bottom: "rpn_bbox_inside_weights"
  bottom: "rpn_bbox_outside_weights"
  top: "rpn_loss_bbox"
  loss_weight: 1
  smooth_l1_loss_param {
    sigma: 3
  }
}
layer {
  name: "rpn_cls_prob"
  type: "Softmax"
  bottom: "rpn_cls_score_reshape"
  top: "rpn_cls_prob"
}
layer {
  name: "rpn_cls_prob_reshape"
  type: "Reshape"
  bottom: "rpn_cls_prob"
  top: "rpn_cls_prob_reshape"
  reshape_param {
    shape {
      dim: 0
      dim: 108
      dim: -1
      dim: 0
    }
  }
}
layer {
  name: "proposal"
  type: "Python"
  bottom: "rpn_cls_prob_reshape"
  bottom: "rpn_bbox_pred"
  bottom: "im_info"
  top: "rpn_rois"
  python_param {
    module: "rotation.rproposal_layer"
    layer: "ProposalLayer"
    param_str: "\'feat_stride\': 16"
  }
}
layer {
  name: "roi-data"
  type: "Python"
  bottom: "rpn_rois"
  bottom: "gt_boxes"
  top: "rois"
  top: "labels"
  top: "bbox_targets"
  top: "bbox_inside_weights"
  top: "bbox_outside_weights"
  python_param {
    module: "rotation.rproposal_target_layer"
    layer: "ProposalTargetLayer"
    param_str: "\'num_classes\': 2"
  }
}
layer {
  name: "roi_pool_conv5"
  type: "RotateROIPooling"
  bottom: "conv5_3"
  bottom: "rois"
  bottom: "im_info"
  top: "pool5"
  rotate_pooling_param {
    pooled_h: 7
    pooled_w: 7
    spatial_scale: 0.0625
  }
}
layer {
  name: "fc6"
  type: "InnerProduct"
  bottom: "pool5"
  top: "fc6"
  param {
    lr_mult: 1
  }
  param {
    lr_mult: 2
  }
  inner_product_param {
    num_output: 4096
    weight_filler {
      type: "gaussian"
      std: 0.001
    }
    bias_filler {
      type: "constant"
      value: 0
    }
  }
}
layer {
  name: "relu6"
  type: "ReLU"
  bottom: "fc6"
  top: "fc6"
}
layer {
  name: "drop6"
  type: "Dropout"
  bottom: "fc6"
  top: "fc6"
  dropout_param {
    dropout_ratio: 0.5
  }
}
layer {
  name: "fc7"
  type: "InnerProduct"
  bottom: "fc6"
  top: "fc7"
  param {
    lr_mult: 1
  }
  param {
    lr_mult: 2
  }
  inner_product_param {
    num_output: 4096
  }
}
layer {
  name: "relu7"
  type: "ReLU"
  bottom: "fc7"
  top: "fc7"
}
layer {
  name: "drop7"
  type: "Dropout"
  bottom: "fc7"
  top: "fc7"
  dropout_param {
    dropout_ratio: 0.5
  }
}
layer {
  name: "cls_score"
  type: "InnerProduct"
  bottom: "fc7"
  top: "cls_score"
  param {
    lr_mult: 1
  }
  param {
    lr_mult: 2
  }
  inner_product_param {
    num_output: 2
    weight_filler {
      type: "gaussian"
      std: 0.01
    }
    bias_filler {
      type: "constant"
      value: 0
    }
  }
}
layer {
  name: "bbox_pred"
  type: "InnerProduct"
  bottom: "fc7"
  top: "bbox_pred"
  param {
    lr_mult: 1
  }
  param {
    lr_mult: 2
  }
  inner_product_param {
    num_output: 10
    weight_filler {
      type: "gaussian"
      std: 0.001
    }
    bias_filler {
      type: "constant"
      value: 0
    }
  }
}
layer {
  name: "loss_cls"
  type: "SoftmaxWithLoss"
  bottom: "cls_score"
  bottom: "labels"
  top: "loss_cls"
  loss_weight: 1
  propagate_down: true
  propagate_down: false
}
layer {
  name: "loss_bbox"
  type: "SmoothL1Loss"
  bottom: "bbox_pred"
  bottom: "bbox_targets"
  bottom: "bbox_inside_weights"
  bottom: "bbox_outside_weights"
  top: "loss_bbox"
  loss_weight: 1
}
I1208 22:08:41.070713 32458 layer_factory.hpp:77] Creating layer input-data
I1208 22:08:41.074312 32458 net.cpp:106] Creating Layer input-data
I1208 22:08:41.074347 32458 net.cpp:411] input-data -> data
I1208 22:08:41.074368 32458 net.cpp:411] input-data -> im_info
I1208 22:08:41.074385 32458 net.cpp:411] input-data -> gt_boxes
usage: train_net.py [-h] [--gpu GPU_ID] [--solver SOLVER] [--iters MAX_ITERS]
…
           'USE_PREFETCH': False},
 'USE_GPU_NMS': True}
MSRA_TRAIN
L_ICDAR2003_TRAIN: 250
total 250
the text instance of total:  1156
250 roidb entries
Output will be saved to `.`
Filtered 4 roidb entries: 250 -> 246
Computing bounding-box regression targets...
bbox target means:
[[ 0.  0.  0.  0.  0.]
 [ 0.  0.  0.  0.  0.]]
[ 0.  0.  0.  0.  0.]
bbox target stdevs:
[[ 0.1  0.1  0.2  0.2  1. ]
 [ 0.1  0.1  0.2  0.2  1. ]]
[ 0.1  0.1  0.2  0.2  1. ]
Normalizing targets
done
Setup the RoIDataLayer
RoiDataLayer: name_tI1208 22:08:41.076818 32458 net.cpp:150] Setting up input-data
I1208 22:08:41.076845 32458 net.cpp:157] Top shape: 1 3 500 500 (750000)
I1208 22:08:41.076858 32458 net.cpp:157] Top shape: 1 3 (3)
I1208 22:08:41.076866 32458 net.cpp:157] Top shape: 1 5 (5)
I1208 22:08:41.076874 32458 net.cpp:165] Memory required for data: 3000032
I1208 22:08:41.076890 32458 layer_factory.hpp:77] Creating layer data_input-data_0_split
I1208 22:08:41.076900 32458 net.cpp:106] Creating Layer data_input-data_0_split
I1208 22:08:41.076905 32458 net.cpp:454] data_input-data_0_split <- data
I1208 22:08:41.076913 32458 net.cpp:411] data_input-data_0_split -> data_input-data_0_split_0
I1208 22:08:41.076922 32458 net.cpp:411] data_input-data_0_split -> data_input-data_0_split_1
I1208 22:08:41.076956 32458 net.cpp:150] Setting up data_input-data_0_split
I1208 22:08:41.076966 32458 net.cpp:157] Top shape: 1 3 500 500 (750000)
I1208 22:08:41.076970 32458 net.cpp:157] Top shape: 1 3 500 500 (750000)
I1208 22:08:41.076974 32458 net.cpp:165] Memory required for data: 9000032
I1208 22:08:41.076978 32458 layer_factory.hpp:77] Creating layer im_info_input-data_1_split
I1208 22:08:41.076987 32458 net.cpp:106] Creating Layer im_info_input-data_1_split
I1208 22:08:41.076990 32458 net.cpp:454] im_info_input-data_1_split <- im_info
I1208 22:08:41.076997 32458 net.cpp:411] im_info_input-data_1_split -> im_info_input-data_1_split_0
I1208 22:08:41.077004 32458 net.cpp:411] im_info_input-data_1_split -> im_info_input-data_1_split_1
I1208 22:08:41.077011 32458 net.cpp:411] im_info_input-data_1_split -> im_info_input-data_1_split_2
I1208 22:08:41.077047 32458 net.cpp:150] Setting up im_info_input-data_1_split
I1208 22:08:41.077055 32458 net.cpp:157] Top shape: 1 3 (3)
I1208 22:08:41.077060 32458 net.cpp:157] Top shape: 1 3 (3)
I1208 22:08:41.077065 32458 net.cpp:157] Top shape: 1 3 (3)
I1208 22:08:41.077069 32458 net.cpp:165] Memory required for data: 9000068
I1208 22:08:41.077072 32458 layer_factory.hpp:77] Creating layer gt_boxes_input-data_2_split
I1208 22:08:41.077078 32458 net.cpp:106] Creating Layer gt_boxes_input-data_2_split
I1208 22:08:41.077082 32458 net.cpp:454] gt_boxes_input-data_2_split <- gt_boxes
I1208 22:08:41.077088 32458 net.cpp:411] gt_boxes_input-data_2_split -> gt_boxes_input-data_2_split_0
I1208 22:08:41.077097 32458 net.cpp:411] gt_boxes_input-data_2_split -> gt_boxes_input-data_2_split_1
I1208 22:08:41.077124 32458 net.cpp:150] Setting up gt_boxes_input-data_2_split
I1208 22:08:41.077134 32458 net.cpp:157] Top shape: 1 5 (5)
I1208 22:08:41.077139 32458 net.cpp:157] Top shape: 1 5 (5)
I1208 22:08:41.077142 32458 net.cpp:165] Memory required for data: 9000108
I1208 22:08:41.077147 32458 layer_factory.hpp:77] Creating layer conv1_1
I1208 22:08:41.077158 32458 net.cpp:106] Creating Layer conv1_1
I1208 22:08:41.077162 32458 net.cpp:454] conv1_1 <- data_input-data_0_split_0
I1208 22:08:41.077181 32458 net.cpp:411] conv1_1 -> conv1_1
I1208 22:08:41.080775 32458 net.cpp:150] Setting up conv1_1
I1208 22:08:41.080811 32458 net.cpp:157] Top shape: 1 64 500 500 (16000000)
I1208 22:08:41.080819 32458 net.cpp:165] Memory required for data: 73000108
I1208 22:08:41.080845 32458 layer_factory.hpp:77] Creating layer relu1_1
I1208 22:08:41.080860 32458 net.cpp:106] Creating Layer relu1_1
I1208 22:08:41.080870 32458 net.cpp:454] relu1_1 <- conv1_1
I1208 22:08:41.080883 32458 net.cpp:397] relu1_1 -> conv1_1 (in-place)
I1208 22:08:41.080899 32458 net.cpp:150] Setting up relu1_1
I1208 22:08:41.080909 32458 net.cpp:157] Top shape: 1 64 500 500 (16000000)
I1208 22:08:41.080917 32458 net.cpp:165] Memory required for data: 137000108
I1208 22:08:41.080924 32458 layer_factory.hpp:77] Creating layer conv1_2
I1208 22:08:41.080940 32458 net.cpp:106] Creating Layer conv1_2
I1208 22:08:41.080952 32458 net.cpp:454] conv1_2 <- conv1_1
I1208 22:08:41.080965 32458 net.cpp:411] conv1_2 -> conv1_2
I1208 22:08:41.083099 32458 net.cpp:150] Setting up conv1_2
I1208 22:08:41.083130 32458 net.cpp:157] Top shape: 1 64 500 500 (16000000)
I1208 22:08:41.083138 32458 net.cpp:165] Memory required for data: 201000108
I1208 22:08:41.083159 32458 layer_factory.hpp:77] Creating layer relu1_2
I1208 22:08:41.083178 32458 net.cpp:106] Creating Layer relu1_2
I1208 22:08:41.083187 32458 net.cpp:454] relu1_2 <- conv1_2
I1208 22:08:41.083199 32458 net.cpp:397] relu1_2 -> conv1_2 (in-place)
I1208 22:08:41.083214 32458 net.cpp:150] Setting up relu1_2
I1208 22:08:41.083225 32458 net.cpp:157] Top shape: 1 64 500 500 (16000000)
I1208 22:08:41.083238 32458 net.cpp:165] Memory required for data: 265000108
I1208 22:08:41.083242 32458 layer_factory.hpp:77] Creating layer pool1
I1208 22:08:41.083251 32458 net.cpp:106] Creating Layer pool1
I1208 22:08:41.083256 32458 net.cpp:454] pool1 <- conv1_2
I1208 22:08:41.083264 32458 net.cpp:411] pool1 -> pool1
I1208 22:08:41.083302 32458 net.cpp:150] Setting up pool1
I1208 22:08:41.083310 32458 net.cpp:157] Top shape: 1 64 250 250 (4000000)
I1208 22:08:41.083314 32458 net.cpp:165] Memory required for data: 281000108
I1208 22:08:41.083319 32458 layer_factory.hpp:77] Creating layer conv2_1
I1208 22:08:41.083329 32458 net.cpp:106] Creating Layer conv2_1
I1208 22:08:41.083334 32458 net.cpp:454] conv2_1 <- pool1
I1208 22:08:41.083343 32458 net.cpp:411] conv2_1 -> conv2_1
I1208 22:08:41.084519 32458 net.cpp:150] Setting up conv2_1
I1208 22:08:41.084538 32458 net.cpp:157] Top shape: 1 128 250 250 (8000000)
I1208 22:08:41.084543 32458 net.cpp:165] Memory required for data: 313000108
I1208 22:08:41.084554 32458 layer_factory.hpp:77] Creating layer relu2_1
I1208 22:08:41.084569 32458 net.cpp:106] Creating Layer relu2_1
I1208 22:08:41.084575 32458 net.cpp:454] relu2_1 <- conv2_1
I1208 22:08:41.084583 32458 net.cpp:397] relu2_1 -> conv2_1 (in-place)
I1208 22:08:41.084590 32458 net.cpp:150] Setting up relu2_1
I1208 22:08:41.084596 32458 net.cpp:157] Top shape: 1 128 250 250 (8000000)
I1208 22:08:41.084600 32458 net.cpp:165] Memory required for data: 345000108
I1208 22:08:41.084604 32458 layer_factory.hpp:77] Creating layer conv2_2
I1208 22:08:41.084614 32458 net.cpp:106] Creating Layer conv2_2
I1208 22:08:41.084617 32458 net.cpp:454] conv2_2 <- conv2_1
I1208 22:08:41.084625 32458 net.cpp:411] conv2_2 -> conv2_2
I1208 22:08:41.084952 32458 net.cpp:150] Setting up conv2_2
I1208 22:08:41.084964 32458 net.cpp:157] Top shape: 1 128 250 250 (8000000)
I1208 22:08:41.084967 32458 net.cpp:165] Memory required for data: 377000108
I1208 22:08:41.084975 32458 layer_factory.hpp:77] Creating layer relu2_2
I1208 22:08:41.084982 32458 net.cpp:106] Creating Layer relu2_2
I1208 22:08:41.084987 32458 net.cpp:454] relu2_2 <- conv2_2
I1208 22:08:41.084992 32458 net.cpp:397] relu2_2 -> conv2_2 (in-place)
I1208 22:08:41.085000 32458 net.cpp:150] Setting up relu2_2
I1208 22:08:41.085005 32458 net.cpp:157] Top shape: 1 128 250 250 (8000000)
I1208 22:08:41.085008 32458 net.cpp:165] Memory required for data: 409000108
I1208 22:08:41.085012 32458 layer_factory.hpp:77] Creating layer pool2
I1208 22:08:41.085019 32458 net.cpp:106] Creating Layer pool2
I1208 22:08:41.085023 32458 net.cpp:454] pool2 <- conv2_2
I1208 22:08:41.085031 32458 net.cpp:411] pool2 -> pool2
I1208 22:08:41.085067 32458 net.cpp:150] Setting up pool2
I1208 22:08:41.085075 32458 net.cpp:157] Top shape: 1 128 125 125 (2000000)
I1208 22:08:41.085079 32458 net.cpp:165] Memory required for data: 417000108
I1208 22:08:41.085084 32458 layer_factory.hpp:77] Creating layer conv3_1
I1208 22:08:41.085093 32458 net.cpp:106] Creating Layer conv3_1
I1208 22:08:41.085098 32458 net.cpp:454] conv3_1 <- pool2
I1208 22:08:41.085105 32458 net.cpp:411] conv3_1 -> conv3_1
I1208 22:08:41.086474 32458 net.cpp:150] Setting up conv3_1
I1208 22:08:41.086496 32458 net.cpp:157] Top shape: 1 256 125 125 (4000000)
I1208 22:08:41.086501 32458 net.cpp:165] Memory required for data: 433000108
I1208 22:08:41.086519 32458 layer_factory.hpp:77] Creating layer relu3_1
I1208 22:08:41.086529 32458 net.cpp:106] Creating Layer relu3_1
I1208 22:08:41.086535 32458 net.cpp:454] relu3_1 <- conv3_1
I1208 22:08:41.086544 32458 net.cpp:397] relu3_1 -> conv3_1 (in-place)
I1208 22:08:41.086553 32458 net.cpp:150] Setting up relu3_1
I1208 22:08:41.086562 32458 net.cpp:157] Top shape: 1 256 125 125 (4000000)
I1208 22:08:41.086566 32458 net.cpp:165] Memory required for data: 449000108
I1208 22:08:41.086570 32458 layer_factory.hpp:77] Creating layer conv3_2
I1208 22:08:41.086585 32458 net.cpp:106] Creating Layer conv3_2
I1208 22:08:41.086589 32458 net.cpp:454] conv3_2 <- conv3_1
I1208 22:08:41.086596 32458 net.cpp:411] conv3_2 -> conv3_2
I1208 22:08:41.088596 32458 net.cpp:150] Setting up conv3_2
I1208 22:08:41.088618 32458 net.cpp:157] Top shape: 1 256 125 125 (4000000)
I1208 22:08:41.088624 32458 net.cpp:165] Memory required for data: 465000108
I1208 22:08:41.088634 32458 layer_factory.hpp:77] Creating layer relu3_2
I1208 22:08:41.088646 32458 net.cpp:106] Creating Layer relu3_2
I1208 22:08:41.088654 32458 net.cpp:454] relu3_2 <- conv3_2
I1208 22:08:41.088662 32458 net.cpp:397] relu3_2 -> conv3_2 (in-place)
I1208 22:08:41.088673 32458 net.cpp:150] Setting up relu3_2
I1208 22:08:41.088688 32458 net.cpp:157] Top shape: 1 256 125 125 (4000000)
I1208 22:08:41.088692 32458 net.cpp:165] Memory required for data: 481000108
I1208 22:08:41.088696 32458 layer_factory.hpp:77] Creating layer conv3_3
I1208 22:08:41.088707 32458 net.cpp:106] Creating Layer conv3_3
I1208 22:08:41.088711 32458 net.cpp:454] conv3_3 <- conv3_2
I1208 22:08:41.088726 32458 net.cpp:411] conv3_3 -> conv3_3
I1208 22:08:41.090888 32458 net.cpp:150] Setting up conv3_3
I1208 22:08:41.090922 32458 net.cpp:157] Top shape: 1 256 125 125 (4000000)
I1208 22:08:41.090930 32458 net.cpp:165] Memory required for data: 497000108
I1208 22:08:41.090945 32458 layer_factory.hpp:77] Creating layer relu3_3
I1208 22:08:41.090960 32458 net.cpp:106] Creating Layer relu3_3
I1208 22:08:41.090968 32458 net.cpp:454] relu3_3 <- conv3_3
I1208 22:08:41.090979 32458 net.cpp:397] relu3_3 -> conv3_3 (in-place)
I1208 22:08:41.090999 32458 net.cpp:150] Setting up relu3_3
I1208 22:08:41.091006 32458 net.cpp:157] Top shape: 1 256 125 125 (4000000)
I1208 22:08:41.091011 32458 net.cpp:165] Memory required for data: 513000108
I1208 22:08:41.091015 32458 layer_factory.hpp:77] Creating layer pool3
I1208 22:08:41.091027 32458 net.cpp:106] Creating Layer pool3
I1208 22:08:41.091033 32458 net.cpp:454] pool3 <- conv3_3
I1208 22:08:41.091048 32458 net.cpp:411] pool3 -> pool3
I1208 22:08:41.091086 32458 net.cpp:150] Setting up pool3
I1208 22:08:41.091094 32458 net.cpp:157] Top shape: 1 256 63 63 (1016064)
I1208 22:08:41.091099 32458 net.cpp:165] Memory required for data: 517064364
I1208 22:08:41.091104 32458 layer_factory.hpp:77] Creating layer conv4_1
I1208 22:08:41.091114 32458 net.cpp:106] Creating Layer conv4_1
I1208 22:08:41.091127 32458 net.cpp:454] conv4_1 <- pool3
I1208 22:08:41.091135 32458 net.cpp:411] conv4_1 -> conv4_1
I1208 22:08:41.094750 32458 net.cpp:150] Setting up conv4_1
I1208 22:08:41.094779 32458 net.cpp:157] Top shape: 1 512 63 63 (2032128)
I1208 22:08:41.094784 32458 net.cpp:165] Memory required for data: 525192876
I1208 22:08:41.094794 32458 layer_factory.hpp:77] Creating layer relu4_1
I1208 22:08:41.094806 32458 net.cpp:106] Creating Layer relu4_1
I1208 22:08:41.094812 32458 net.cpp:454] relu4_1 <- conv4_1
I1208 22:08:41.094823 32458 net.cpp:397] relu4_1 -> conv4_1 (in-place)
I1208 22:08:41.094835 32458 net.cpp:150] Setting up relu4_1
I1208 22:08:41.094841 32458 net.cpp:157] Top shape: 1 512 63 63 (2032128)
I1208 22:08:41.094846 32458 net.cpp:165] Memory required for data: 533321388
I1208 22:08:41.094849 32458 layer_factory.hpp:77] Creating layer conv4_2
I1208 22:08:41.094861 32458 net.cpp:106] Creating Layer conv4_2
I1208 22:08:41.094866 32458 net.cpp:454] conv4_2 <- conv4_1
I1208 22:08:41.094872 32458 net.cpp:411] conv4_2 -> conv4_2
I1208 22:08:41.100836 32458 net.cpp:150] Setting up conv4_2
I1208 22:08:41.100874 32458 net.cpp:157] Top shape: 1 512 63 63 (2032128)
I1208 22:08:41.100879 32458 net.cpp:165] Memory required for data: 541449900
I1208 22:08:41.100899 32458 layer_factory.hpp:77] Creating layer relu4_2
I1208 22:08:41.100920 32458 net.cpp:106] Creating Layer relu4_2
I1208 22:08:41.100927 32458 net.cpp:454] relu4_2 <- conv4_2
I1208 22:08:41.100937 32458 net.cpp:397] relu4_2 -> conv4_2 (in-place)
I1208 22:08:41.100950 32458 net.cpp:150] Setting up relu4_2
I1208 22:08:41.100955 32458 net.cpp:157] Top shape: 1 512 63 63 (2032128)
I1208 22:08:41.100960 32458 net.cpp:165] Memory required for data: 549578412
I1208 22:08:41.100965 32458 layer_factory.hpp:77] Creating layer conv4_3
I1208 22:08:41.100975 32458 net.cpp:106] Creating Layer conv4_3
I1208 22:08:41.100980 32458 net.cpp:454] conv4_3 <- conv4_2
I1208 22:08:41.100988 32458 net.cpp:411] conv4_3 -> conv4_3
I1208 22:08:41.106590 32458 net.cpp:150] Setting up conv4_3
I1208 22:08:41.106624 32458 net.cpp:157] Top shape: 1 512 63 63 (2032128)
I1208 22:08:41.106629 32458 net.cpp:165] Memory required for data: 557706924
I1208 22:08:41.106642 32458 layer_factory.hpp:77] Creating layer relu4_3
I1208 22:08:41.106654 32458 net.cpp:106] Creating Layer relu4_3
I1208 22:08:41.106672 32458 net.cpp:454] relu4_3 <- conv4_3
I1208 22:08:41.106680 32458 net.cpp:397] relu4_3 -> conv4_3 (in-place)
I1208 22:08:41.106693 32458 net.cpp:150] Setting up relu4_3
I1208 22:08:41.106698 32458 net.cpp:157] Top shape: 1 512 63 63 (2032128)
I1208 22:08:41.106703 32458 net.cpp:165] Memory required for data: 565835436
I1208 22:08:41.106706 32458 layer_factory.hpp:77] Creating layer pool4
I1208 22:08:41.106714 32458 net.cpp:106] Creating Layer pool4
I1208 22:08:41.106719 32458 net.cpp:454] pool4 <- conv4_3
I1208 22:08:41.106727 32458 net.cpp:411] pool4 -> pool4
I1208 22:08:41.106767 32458 net.cpp:150] Setting up pool4
I1208 22:08:41.106775 32458 net.cpp:157] Top shape: 1 512 32 32 (524288)
I1208 22:08:41.106779 32458 net.cpp:165] Memory required for data: 567932588
I1208 22:08:41.106783 32458 layer_factory.hpp:77] Creating layer conv5_1
I1208 22:08:41.106796 32458 net.cpp:106] Creating Layer conv5_1
I1208 22:08:41.106801 32458 net.cpp:454] conv5_1 <- pool4
I1208 22:08:41.106809 32458 net.cpp:411] conv5_1 -> conv5_1
I1208 22:08:41.112270 32458 net.cpp:150] Setting up conv5_1
I1208 22:08:41.112329 32458 net.cpp:157] Top shape: 1 512 32 32 (524288)
I1208 22:08:41.112334 32458 net.cpp:165] Memory required for data: 570029740
I1208 22:08:41.112346 32458 layer_factory.hpp:77] Creating layer relu5_1
I1208 22:08:41.112361 32458 net.cpp:106] Creating Layer relu5_1
I1208 22:08:41.112367 32458 net.cpp:454] relu5_1 <- conv5_1
I1208 22:08:41.112380 32458 net.cpp:397] relu5_1 -> conv5_1 (in-place)
I1208 22:08:41.112391 32458 net.cpp:150] Setting up relu5_1
I1208 22:08:41.112403 32458 net.cpp:157] Top shape: 1 512 32 32 (524288)
I1208 22:08:41.112407 32458 net.cpp:165] Memory required for data: 572126892
I1208 22:08:41.112411 32458 layer_factory.hpp:77] Creating layer conv5_2
I1208 22:08:41.112432 32458 net.cpp:106] Creating Layer conv5_2
I1208 22:08:41.112437 32458 net.cpp:454] conv5_2 <- conv5_1
I1208 22:08:41.112445 32458 net.cpp:411] conv5_2 -> conv5_2
I1208 22:08:41.117904 32458 net.cpp:150] Setting up conv5_2
I1208 22:08:41.117952 32458 net.cpp:157] Top shape: 1 512 32 32 (524288)
I1208 22:08:41.117957 32458 net.cpp:165] Memory required for data: 574224044
I1208 22:08:41.117969 32458 layer_factory.hpp:77] Creating layer relu5_2
I1208 22:08:41.117988 32458 net.cpp:106] Creating Layer relu5_2
I1208 22:08:41.117995 32458 net.cpp:454] relu5_2 <- conv5_2
I1208 22:08:41.118006 32458 net.cpp:397] relu5_2 -> conv5_2 (in-place)
I1208 22:08:41.118018 32458 net.cpp:150] Setting up relu5_2
I1208 22:08:41.118024 32458 net.cpp:157] Top shape: 1 512 32 32 (524288)
I1208 22:08:41.118028 32458 net.cpp:165] Memory required for data: 576321196
I1208 22:08:41.118033 32458 layer_factory.hpp:77] Creating layer conv5_3
I1208 22:08:41.118059 32458 net.cpp:106] Creating Layer conv5_3
I1208 22:08:41.118065 32458 net.cpp:454] conv5_3 <- conv5_2
I1208 22:08:41.118073 32458 net.cpp:411] conv5_3 -> conv5_3
I1208 22:08:41.123912 32458 net.cpp:150] Setting up conv5_3
I1208 22:08:41.123948 32458 net.cpp:157] Top shape: 1 512 32 32 (524288)
I1208 22:08:41.123953 32458 net.cpp:165] Memory required for data: 578418348
I1208 22:08:41.123966 32458 layer_factory.hpp:77] Creating layer relu5_3
I1208 22:08:41.123983 32458 net.cpp:106] Creating Layer relu5_3
I1208 22:08:41.123991 32458 net.cpp:454] relu5_3 <- conv5_3
I1208 22:08:41.123999 32458 net.cpp:397] relu5_3 -> conv5_3 (in-place)
I1208 22:08:41.124013 32458 net.cpp:150] Setting up relu5_3
I1208 22:08:41.124019 32458 net.cpp:157] Top shape: 1 512 32 32 (524288)
I1208 22:08:41.124023 32458 net.cpp:165] Memory required for data: 580515500
I1208 22:08:41.124027 32458 layer_factory.hpp:77] Creating layer conv5_3_relu5_3_0_split
I1208 22:08:41.124034 32458 net.cpp:106] Creating Layer conv5_3_relu5_3_0_split
I1208 22:08:41.124039 32458 net.cpp:454] conv5_3_relu5_3_0_split <- conv5_3
I1208 22:08:41.124045 32458 net.cpp:411] conv5_3_relu5_3_0_split -> conv5_3_relu5_3_0_split_0
I1208 22:08:41.124055 32458 net.cpp:411] conv5_3_relu5_3_0_split -> conv5_3_relu5_3_0_split_1
I1208 22:08:41.124092 32458 net.cpp:150] Setting up conv5_3_relu5_3_0_split
I1208 22:08:41.124101 32458 net.cpp:157] Top shape: 1 512 32 32 (524288)
I1208 22:08:41.124106 32458 net.cpp:157] Top shape: 1 512 32 32 (524288)
I1208 22:08:41.124110 32458 net.cpp:165] Memory required for data: 584709804
I1208 22:08:41.124114 32458 layer_factory.hpp:77] Creating layer rpn_conv/3x3
I1208 22:08:41.124130 32458 net.cpp:106] Creating Layer rpn_conv/3x3
I1208 22:08:41.124137 32458 net.cpp:454] rpn_conv/3x3 <- conv5_3_relu5_3_0_split_0
I1208 22:08:41.124147 32458 net.cpp:411] rpn_conv/3x3 -> rpn/output
I1208 22:08:41.155719 32458 net.cpp:150] Setting up rpn_conv/3x3
I1208 22:08:41.155750 32458 net.cpp:157] Top shape: 1 512 32 32 (524288)
I1208 22:08:41.155755 32458 net.cpp:165] Memory required for data: 586806956
I1208 22:08:41.155766 32458 layer_factory.hpp:77] Creating layer rpn_relu/3x3
I1208 22:08:41.155777 32458 net.cpp:106] Creating Layer rpn_relu/3x3
I1208 22:08:41.155783 32458 net.cpp:454] rpn_relu/3x3 <- rpn/output
I1208 22:08:41.155791 32458 net.cpp:397] rpn_relu/3x3 -> rpn/output (in-place)
I1208 22:08:41.155804 32458 net.cpp:150] Setting up rpn_relu/3x3
I1208 22:08:41.155810 32458 net.cpp:157] Top shape: 1 512 32 32 (524288)
I1208 22:08:41.155813 32458 net.cpp:165] Memory required for data: 588904108
I1208 22:08:41.155817 32458 layer_factory.hpp:77] Creating layer rpn/output_rpn_relu/3x3_0_split
I1208 22:08:41.155824 32458 net.cpp:106] Creating Layer rpn/output_rpn_relu/3x3_0_split
I1208 22:08:41.155828 32458 net.cpp:454] rpn/output_rpn_relu/3x3_0_split <- rpn/output
I1208 22:08:41.155834 32458 net.cpp:411] rpn/output_rpn_relu/3x3_0_split -> rpn/output_rpn_relu/3x3_0_split_0
I1208 22:08:41.155843 32458 net.cpp:411] rpn/output_rpn_relu/3x3_0_split -> rpn/output_rpn_relu/3x3_0_split_1
I1208 22:08:41.155880 32458 net.cpp:150] Setting up rpn/output_rpn_relu/3x3_0_split
I1208 22:08:41.155890 32458 net.cpp:157] Top shape: 1 512 32 32 (524288)
I1208 22:08:41.155895 32458 net.cpp:157] Top shape: 1 512 32 32 (524288)
I1208 22:08:41.155899 32458 net.cpp:165] Memory required for data: 593098412
I1208 22:08:41.155902 32458 layer_factory.hpp:77] Creating layer rpn_cls_score
I1208 22:08:41.155915 32458 net.cpp:106] Creating Layer rpn_cls_score
I1208 22:08:41.155920 32458 net.cpp:454] rpn_cls_score <- rpn/output_rpn_relu/3x3_0_split_0
I1208 22:08:41.155930 32458 net.cpp:411] rpn_cls_score -> rpn_cls_score
I1208 22:08:41.156790 32458 net.cpp:150] Setting up rpn_cls_score
I1208 22:08:41.156801 32458 net.cpp:157] Top shape: 1 108 32 32 (110592)
I1208 22:08:41.156805 32458 net.cpp:165] Memory required for data: 593540780
I1208 22:08:41.156812 32458 layer_factory.hpp:77] Creating layer rpn_cls_score_rpn_cls_score_0_split
I1208 22:08:41.156821 32458 net.cpp:106] Creating Layer rpn_cls_score_rpn_cls_score_0_split
I1208 22:08:41.156824 32458 net.cpp:454] rpn_cls_score_rpn_cls_score_0_split <- rpn_cls_score
I1208 22:08:41.156831 32458 net.cpp:411] rpn_cls_score_rpn_cls_score_0_split -> rpn_cls_score_rpn_cls_score_0_split_0
I1208 22:08:41.156837 32458 net.cpp:411] rpn_cls_score_rpn_cls_score_0_split -> rpn_cls_score_rpn_cls_score_0_split_1
I1208 22:08:41.156893 32458 net.cpp:150] Setting up rpn_cls_score_rpn_cls_score_0_split
I1208 22:08:41.156908 32458 net.cpp:157] Top shape: 1 108 32 32 (110592)
I1208 22:08:41.156920 32458 net.cpp:157] Top shape: 1 108 32 32 (110592)
I1208 22:08:41.156924 32458 net.cpp:165] Memory required for data: 594425516
I1208 22:08:41.156929 32458 layer_factory.hpp:77] Creating layer rpn_bbox_pred
I1208 22:08:41.156939 32458 net.cpp:106] Creating Layer rpn_bbox_pred
I1208 22:08:41.156950 32458 net.cpp:454] rpn_bbox_pred <- rpn/output_rpn_relu/3x3_0_split_1
I1208 22:08:41.156973 32458 net.cpp:411] rpn_bbox_pred -> rpn_bbox_pred
I1208 22:08:41.159690 32458 net.cpp:150] Setting up rpn_bbox_pred
I1208 22:08:41.159716 32458 net.cpp:157] Top shape: 1 270 32 32 (276480)
I1208 22:08:41.159720 32458 net.cpp:165] Memory required for data: 595531436
I1208 22:08:41.159729 32458 layer_factory.hpp:77] Creating layer rpn_bbox_pred_rpn_bbox_pred_0_split
I1208 22:08:41.159736 32458 net.cpp:106] Creating Layer rpn_bbox_pred_rpn_bbox_pred_0_split
I1208 22:08:41.159742 32458 net.cpp:454] rpn_bbox_pred_rpn_bbox_pred_0_split <- rpn_bbox_pred
I1208 22:08:41.159751 32458 net.cpp:411] rpn_bbox_pred_rpn_bbox_pred_0_split -> rpn_bbox_pred_rpn_bbox_pred_0_split_0
I1208 22:08:41.159760 32458 net.cpp:411] rpn_bbox_pred_rpn_bbox_pred_0_split -> rpn_bbox_pred_rpn_bbox_pred_0_split_1
I1208 22:08:41.159796 32458 net.cpp:150] Setting up rpn_bbox_pred_rpn_bbox_pred_0_split
I1208 22:08:41.159812 32458 net.cpp:157] Top shape: 1 270 32 32 (276480)
I1208 22:08:41.159826 32458 net.cpp:157] Top shape: 1 270 32 32 (276480)
I1208 22:08:41.159828 32458 net.cpp:165] Memory required for data: 597743276
I1208 22:08:41.159832 32458 layer_factory.hpp:77] Creating layer rpn_cls_score_reshape
I1208 22:08:41.159842 32458 net.cpp:106] Creating Layer rpn_cls_score_reshape
I1208 22:08:41.159847 32458 net.cpp:454] rpn_cls_score_reshape <- rpn_cls_score_rpn_cls_score_0_split_0
I1208 22:08:41.159854 32458 net.cpp:411] rpn_cls_score_reshape -> rpn_cls_score_reshape
I1208 22:08:41.159883 32458 net.cpp:150] Setting up rpn_cls_score_reshape
I1208 22:08:41.159905 32458 net.cpp:157] Top shape: 1 2 1728 32 (110592)
I1208 22:08:41.159909 32458 net.cpp:165] Memory required for data: 598185644
I1208 22:08:41.159914 32458 layer_factory.hpp:77] Creating layer rpn_cls_score_reshape_rpn_cls_score_reshape_0_split
I1208 22:08:41.159919 32458 net.cpp:106] Creating Layer rpn_cls_score_reshape_rpn_cls_score_reshape_0_split
I1208 22:08:41.159924 32458 net.cpp:454] rpn_cls_score_reshape_rpn_cls_score_reshape_0_split <- rpn_cls_score_reshape
I1208 22:08:41.159931 32458 net.cpp:411] rpn_cls_score_reshape_rpn_cls_score_reshape_0_split -> rpn_cls_score_reshape_rpn_cls_score_reshape_0_split_0
I1208 22:08:41.159940 32458 net.cpp:411] rpn_cls_score_reshape_rpn_cls_score_reshape_0_split -> rpn_cls_score_reshape_rpn_cls_score_reshape_0_split_1
I1208 22:08:41.159971 32458 net.cpp:150] Setting up rpn_cls_score_reshape_rpn_cls_score_reshape_0_split
I1208 22:08:41.159978 32458 net.cpp:157] Top shape: 1 2 1728 32 (110592)
I1208 22:08:41.159983 32458 net.cpp:157] Top shape: 1 2 1728 32 (110592)
I1208 22:08:41.159986 32458 net.cpp:165] Memory required for data: 599070380
I1208 22:08:41.159991 32458 layer_factory.hpp:77] Creating layer rpn-data
I1208 22:08:41.161168 32458 net.cpp:106] Creating Layer rpn-data
I1208 22:08:41.161182 32458 net.cpp:454] rpn-data <- rpn_cls_score_rpn_cls_score_0_split_1
I1208 22:08:41.161190 32458 net.cpp:454] rpn-data <- gt_boxes_input-data_2_split_0
I1208 22:08:41.161195 32458 net.cpp:454] rpn-data <- im_info_input-data_1_split_0
I1208 22:08:41.161201 32458 net.cpp:454] rpn-data <- data_input-data_0_split_1
I1208 22:08:41.161207 32458 net.cpp:411] rpn-data -> rpn_labels
I1208 22:08:41.161216 32458 net.cpp:411] rpn-data -> rpn_bbox_targets
I1208 22:08:41.161232 32458 net.cpp:411] rpn-data -> rpn_bbox_inside_weights
I1208 22:08:41.161240 32458 net.cpp:411] rpn-data -> rpn_bbox_outside_weights
I1208 22:08:41.162350 32458 net.cpp:150] Setting up rpn-data
I1208 22:08:41.162364 32458 net.cpp:157] Top shape: 1 1 1728 32 (55296)
I1208 22:08:41.162370 32458 net.cpp:157] Top shape: 1 270 32 32 (276480)
I1208 22:08:41.162375 32458 net.cpp:157] Top shape: 1 270 32 32 (276480)
I1208 22:08:41.162380 32458 net.cpp:157] Top shape: 1 270 32 32 (276480)
I1208 22:08:41.162384 32458 net.cpp:165] Memory required for data: 602609324
I1208 22:08:41.162389 32458 layer_factory.hpp:77] Creating layer rpn_loss_cls
I1208 22:08:41.162396 32458 net.cpp:106] Creating Layer rpn_loss_cls
I1208 22:08:41.162400 32458 net.cpp:454] rpn_loss_cls <- rpn_cls_score_reshape_rpn_cls_score_reshape_0_split_0
I1208 22:08:41.162406 32458 net.cpp:454] rpn_loss_cls <- rpn_labels
…
I1208 22:08:41.165422 32458 net.cpp:157] Top shape: (1)
I1208 22:08:41.165426 32458 net.cpp:160]     with loss weight 1
I1208 22:08:41.165434 32458 net.cpp:165] Memory required for data: 602609332
I1208 22:08:41.165438 32458 layer_factory.hpp:77] Creating layer rpn_cls_prob
I1208 22:08:41.165452 32458 net.cpp:106] Creating Layer rpn_cls_prob
I1208 22:08:41.165457 32458 net.cpp:454] rpn_cls_prob <- rpn_cls_score_reshape_rpn_cls_score_reshape_0_split_1
I1208 22:08:41.165464 32458 net.cpp:411] rpn_cls_prob -> rpn_cls_prob
I1208 22:08:41.165549 32458 net.cpp:150] Setting up rpn_cls_prob
I1208 22:08:41.165565 32458 net.cpp:157] Top shape: 1 2 1728 32 (110592)
I1208 22:08:41.165570 32458 net.cpp:165] Memory required for data: 603051700
I1208 22:08:41.165581 32458 layer_factory.hpp:77] Creating layer rpn_cls_prob_reshape
I1208 22:08:41.165588 32458 net.cpp:106] Creating Layer rpn_cls_prob_reshape
I1208 22:08:41.165593 32458 net.cpp:454] rpn_cls_prob_reshape <- rpn_cls_prob
I1208 22:08:41.165599 32458 net.cpp:411] rpn_cls_prob_reshape -> rpn_cls_prob_reshape
I1208 22:08:41.165630 32458 net.cpp:150] Setting up rpn_cls_prob_reshape
I1208 22:08:41.165645 32458 net.cpp:157] Top shape: 1 108 32 32 (110592)
I1208 22:08:41.165649 32458 net.cpp:165] Memory required for data: 603494068
I1208 22:08:41.165653 32458 layer_factory.hpp:77] Creating layer proposal
I1208 22:08:41.175536 32458 net.cpp:106] Creating Layer proposal
I1208 22:08:41.175556 32458 net.cpp:454] proposal <- rpn_cls_prob_reshape
I1208 22:08:41.175562 32458 net.cpp:454] proposal <- rpn_bbox_pred_rpn_bbox_pred_0_split_1
I1208 22:08:41.175568 32458 net.cpp:454] proposal <- im_info_input-data_1_split_1
I1208 22:08:41.175575 32458 net.cpp:411] proposal -> rpn_rois
I1208 22:08:41.176982 32458 net.cpp:150] Setting up proposal
I1208 22:08:41.176995 32458 net.cpp:157] Top shape: 1 6 (6)
I1208 22:08:41.177000 32458 net.cpp:165] Memory required for data: 603494092
I1208 22:08:41.177004 32458 layer_factory.hpp:77] Creating layer roi-data
I1208 22:08:41.182598 32458 net.cpp:106] Creating Layer roi-data
I1208 22:08:41.182611 32458 net.cpp:454] roi-data <- rpn_rois
I1208 22:08:41.182620 32458 net.cpp:454] roi-data <- gt_boxes_input-data_2_split_1
I1208 22:08:41.182626 32458 net.cpp:411] roi-data -> rois
I1208 22:08:41.182636 32458 net.cpp:411] roi-data -> labels
I1208 22:08:41.182643 32458 net.cpp:411] roi-data -> bbox_targets
I1208 22:08:41.182657 32458 net.cpp:411] roi-data -> bbox_inside_weights
I1208 22:08:41.182665 32458 net.cpp:411] roi-data -> bbox_outside_weights
I1208 22:08:41.183037 32458 net.cpp:150] Setting up roi-data
I1208 22:08:41.183049 32458 net.cpp:157] Top shape: 1 6 (6)
I1208 22:08:41.183054 32458 net.cpp:157] Top shape: 1 1 (1)
I1208 22:08:41.183058 32458 net.cpp:157] Top shape: 1 10 (10)
I1208 22:08:41.183063 32458 net.cpp:157] Top shape: 1 10 (10)
I1208 22:08:41.183068 32458 net.cpp:157] Top shape: 1 10 (10)
I1208 22:08:41.183070 32458 net.cpp:165] Memory required for data: 603494240
I1208 22:08:41.183075 32458 layer_factory.hpp:77] Creating layer roi_pool_conv5
I1208 22:08:41.183084 32458 net.cpp:106] Creating Layer roi_pool_conv5
I1208 22:08:41.183096 32458 net.cpp:454] roi_pool_conv5 <- conv5_3_relu5_3_0_split_1
I1208 22:08:41.183101 32458 net.cpp:454] roi_pool_conv5 <- rois
I1208 22:08:41.183107 32458 net.cpp:454] roi_pool_conv5 <- im_info_input-data_1_split_2
I1208 22:08:41.183113 32458 net.cpp:411] roi_pool_conv5 -> pool5
I1208 22:08:41.183122 32458 rotate_roi_pooling_layer.cpp:24] Spatial scale: 0.0625
I1208 22:08:41.183176 32458 net.cpp:150] Setting up roi_pool_conv5
I1208 22:08:41.183183 32458 net.cpp:157] Top shape: 1 512 7 7 (25088)
I1208 22:08:41.183187 32458 net.cpp:165] Memory required for data: 603594592
I1208 22:08:41.183199 32458 layer_factory.hpp:77] Creating layer fc6
I1208 22:08:41.183215 32458 net.cpp:106] Creating Layer fc6
I1208 22:08:41.183220 32458 net.cpp:454] fc6 <- pool5
I1208 22:08:41.183226 32458 net.cpp:411] fc6 -> fc6
I1208 22:08:42.425073 32458 net.cpp:150] Setting up fc6
I1208 22:08:42.425110 32458 net.cpp:157] Top shape: 1 4096 (4096)
I1208 22:08:42.425114 32458 net.cpp:165] Memory required for data: 603610976
I1208 22:08:42.425133 32458 layer_factory.hpp:77] Creating layer relu6
I1208 22:08:42.425146 32458 net.cpp:106] Creating Layer relu6
I1208 22:08:42.425160 32458 net.cpp:454] relu6 <- fc6
I1208 22:08:42.425168 32458 net.cpp:397] relu6 -> fc6 (in-place)
I1208 22:08:42.425187 32458 net.cpp:150] Setting up relu6
I1208 22:08:42.425199 32458 net.cpp:157] Top shape: 1 4096 (4096)
I1208 22:08:42.425204 32458 net.cpp:165] Memory required for data: 603627360
I1208 22:08:42.425206 32458 layer_factory.hpp:77] Creating layer drop6
I1208 22:08:42.425215 32458 net.cpp:106] Creating Layer drop6
I1208 22:08:42.425218 32458 net.cpp:454] drop6 <- fc6
I1208 22:08:42.425225 32458 net.cpp:397] drop6 -> fc6 (in-place)
I1208 22:08:42.425246 32458 net.cpp:150] Setting up drop6
I1208 22:08:42.425253 32458 net.cpp:157] Top shape: 1 4096 (4096)
I1208 22:08:42.425256 32458 net.cpp:165] Memory required for data: 603643744
I1208 22:08:42.425261 32458 layer_factory.hpp:77] Creating layer fc7
I1208 22:08:42.425279 32458 net.cpp:106] Creating Layer fc7
I1208 22:08:42.425287 32458 net.cpp:454] fc7 <- fc6
I1208 22:08:42.425292 32458 net.cpp:411] fc7 -> fc7
I1208 22:08:42.458417 32458 net.cpp:150] Setting up fc7
I1208 22:08:42.458461 32458 net.cpp:157] Top shape: 1 4096 (4096)
I1208 22:08:42.458464 32458 net.cpp:165] Memory required for data: 603660128
I1208 22:08:42.458477 32458 layer_factory.hpp:77] Creating layer relu7
I1208 22:08:42.458489 32458 net.cpp:106] Creating Layer relu7
I1208 22:08:42.458495 32458 net.cpp:454] relu7 <- fc7
I1208 22:08:42.458503 32458 net.cpp:397] relu7 -> fc7 (in-place)
I1208 22:08:42.458514 32458 net.cpp:150] Setting up relu7
I1208 22:08:42.458519 32458 net.cpp:157] Top shape: 1 4096 (4096)
I1208 22:08:42.458523 32458 net.cpp:165] Memory required for data: 603676512
I1208 22:08:42.458526 32458 layer_factory.hpp:77] Creating layer drop7
I1208 22:08:42.458534 32458 net.cpp:106] Creating Layer drop7
I1208 22:08:42.458545 32458 net.cpp:454] drop7 <- fc7
I1208 22:08:42.458551 32458 net.cpp:397] drop7 -> fc7 (in-place)
I1208 22:08:42.458575 32458 net.cpp:150] Setting up drop7
I1208 22:08:42.458591 32458 net.cpp:157] Top shape: 1 4096 (4096)
I1208 22:08:42.458595 32458 net.cpp:165] Memory required for data: 603692896
I1208 22:08:42.458600 32458 layer_factory.hpp:77] Creating layer fc7_drop7_0_split
I1208 22:08:42.458612 32458 net.cpp:106] Creating Layer fc7_drop7_0_split
I1208 22:08:42.458619 32458 net.cpp:454] fc7_drop7_0_split <- fc7
I1208 22:08:42.458626 32458 net.cpp:411] fc7_drop7_0_split -> fc7_drop7_0_split_0
I1208 22:08:42.458633 32458 net.cpp:411] fc7_drop7_0_split -> fc7_drop7_0_split_1
I1208 22:08:42.458674 32458 net.cpp:150] Setting up fc7_drop7_0_split
I1208 22:08:42.458683 32458 net.cpp:157] Top shape: 1 4096 (4096)
I1208 22:08:42.458686 32458 net.cpp:157] Top shape: 1 4096 (4096)
I1208 22:08:42.458690 32458 net.cpp:165] Memory required for data: 603725664
I1208 22:08:42.458693 32458 layer_factory.hpp:77] Creating layer cls_score
I1208 22:08:42.458701 32458 net.cpp:106] Creating Layer cls_score
I1208 22:08:42.458705 32458 net.cpp:454] cls_score <- fc7_drop7_0_split_0
I1208 22:08:42.458712 32458 net.cpp:411] cls_score -> cls_score
I1208 22:08:42.458925 32458 net.cpp:150] Setting up cls_score
I1208 22:08:42.458935 32458 net.cpp:157] Top shape: 1 2 (2)
I1208 22:08:42.458938 32458 net.cpp:165] Memory required for data: 603725672
I1208 22:08:42.458945 32458 layer_factory.hpp:77] Creating layer bbox_pred
I1208 22:08:42.458951 32458 net.cpp:106] Creating Layer bbox_pred
I1208 22:08:42.458956 32458 net.cpp:454] bbox_pred <- fc7_drop7_0_split_1
I1208 22:08:42.458963 32458 net.cpp:411] bbox_pred -> bbox_pred
I1208 22:08:42.459542 32458 net.cpp:150] Setting up bbox_pred
I1208 22:08:42.459551 32458 net.cpp:157] Top shape: 1 10 (10)
I1208 22:08:42.459554 32458 net.cpp:165] Memory required for data: 603725712
I1208 22:08:42.459561 32458 layer_factory.hpp:77] Creating layer loss_cls
I1208 22:08:42.459569 32458 net.cpp:106] Creating Layer loss_cls
I1208 22:08:42.459573 32458 net.cpp:454] loss_cls <- cls_score
I1208 22:08:42.459579 32458 net.cpp:454] loss_cls <- labels
I1208 22:08:42.459585 32458 net.cpp:411] loss_cls -> loss_cls
…
